EXPERIMENT/optimization-MQTT/SERVER-eve_thing/models_artifacts4/lstm_v2_best.pth (torch, 213145 bytes, 12 tensors)

lstm.weight_ih_l0 f4 [256, 6]
0.08313931 0.15221314 -0.055820733 0.07119868 -0.022200061 -0.029740084 -0.049602266 0.08049643
0.15814714 -0.085810184 0.04254955 0.08933913 0.13632783 -0.0020856196 0.029091394 0.0014004409
0.13021837 0.062745094 -0.064155936 -0.02480443 -0.013446194 -0.057763718 -0.016098794 0.033184387
-0.055811156 -0.016830914 -0.026716186 -0.11495278 0.06838888 -0.16640007 0.046968125 -0.06058019
0.05785751 0.08005565 -0.11066995 0.13168187 0.021378143 0.08223479 0.050040852 -0.074096546
0.100648046 -0.09493536 0.114747085 0.122606054 0.067535855 -0.09614788 0.015114173 0.034061972
-0.00652716 -0.10410331 -0.10582531 -0.041881073 -0.16005498 0.05348142 0.0018776932 -0.018256184
0.028138218 -0.0007245519 0.111098796 -0.094110124 0.023172362 -0.070299454 -0.012922173 -0.049183924
0.098260045 0.01701179 0.12096456 -0.12390972 -0.06169123 -0.011453512 0.17490947 -0.0011035723
0.14352474 -0.060671873 -0.15749106 -0.13246293 -0.06637224 0.08434293 0.077834345 0.058497086
-0.06300078 -0.054898202 0.007027421 -0.002532998 0.12505051 0.00013998259 0.11387792 -0.13073687
-0.0777025 0.0022047027 -0.042326074 -0.08432951 0.03308562 0.14762162 -0.15623537 0.00887875
0.08109341 0.02586786 -0.108925626 -0.15763903 -0.118199766 0.0630553 -0.043962676 -0.056685664
0.037980467 -0.07229852 -0.17077288 -0.12444742 -0.052867197 -0.1514167 0.17676412 -0.026665436
0.09991932 -0.11473659 -0.015784638 -0.01770715 0.07659292 -0.17112498 0.01315946 -0.115163736
0.060974747 -0.02168175 0.031435512 -0.1458736 -0.03182019 -0.14035209 0.023161866 -0.05916658
0.050634153 -0.08279059 0.1687308 -0.029395774 -0.13522555 0.06788096 -0.0408206 -0.007426534
-0.14774778 -0.100894496 -0.017019361 -0.055760764 0.034433033 -0.07804302 0.030552296 -0.03980485
-0.058040757 -0.053250633 0.058425758 0.1648632 0.079942614 -0.04755461 0.014294741 -0.057864413
-0.02776197 -0.08765752 0.10385919 -0.08756001 0.1011694 0.08785567 0.04363593 -0.037383605
0.10657045 0.0040756613 0.053179402 -0.08284438 0.036989402 -0.051017698 -0.049771003 0.07980118
-0.04081239 -0.039180774 -0.10742924 0.01394202 -0.0021209856 -0.05822324 -0.010819374 -0.104974724
-0.04496243 0.011177686 0.16522783 -0.10011476 0.0077836094 0.037006177 -0.0151251275 -0.020354679
0.1176972 0.10292783 0.10897685 0.015391548 -0.05281614 -0.04589544 0.04278871 -0.08977972
0.026531553 0.12323315 -0.06031499 0.029576635 -0.059814375 0.049947403 0.08845065 0.10583034
-0.13164036 -0.107667774 0.17522591 -0.0016905698 0.016404398 -0.107336976 -0.06047486 -0.065254994
-0.008444143 0.03674067 0.025221296 0.014507846 -0.13109918 -0.025912873 -0.0720661 0.15864727
0.051759686 0.017798357 0.07234524 -0.09968706 -0.069354124 0.08485081 0.002306024 -0.07545623
-0.1508532 0.049641702 0.16400458 -0.022807619 -0.14713764 -0.112828046 -0.10393644 0.14094852
0.0014143533 0.17119068 0.10350543 0.052003674 0.035281993 -0.06535293 -0.07215347 -0.07713301
0.11385508 -0.06453364 0.008202213 -0.09517898 0.038275547 -0.12389248 -0.15496103 -0.019027675
0.021874163 0.09744129 -0.10990709 -0.13793527 0.013012667 -0.027814507 -0.01786569 -0.09415848
00000000: f144 aa3d c3dd 1b3e 48a4 64bd 9dd0 913d
00000010: e7dc b5bc 7aa1 f3bc bf2b 4bbd 50db a43d
00000020: 53f1 213e 40bd afbd 7048 2e3d 6ff7 b63d
00000030: 8699 0b3e e4ae 08bb 1351 ee3c 008f b73a
00000040: f757 053e 8080 803d 3064 83bd a932 cbbc
00000050: 6d4d 5cbc a699 6cbd 9ee1 83bc 5aec 073d
00000060: 3d9a 64bd fce0 89bc e7db dabc 5d6c ebbd
00000070: 780f 8c3d c864 2abe a661 403d ef22 78bd
00000080: fffb 6c3d 37f4 a33d eda6 e2bd 9dd7 063e
00000090: 3721 af3c b76a a83d a3f7 4c3d eebf 97bd
000000a0: 9020 ce3d 786d c2bd 8500 eb3d e218 fb3d
000000b0: 3d50 8a3d 2ee9 c4bd 70a1 773c 9184 0b3d
000000c0: c9e1 d5bb 1e34 d5bd f1ba d8bd 7d8b 2bbd
000000d0: 74e5 23be 550f 5b3d ee1c f63a fe8d 95bc
000000e0: 1f82 e63c dbef 3dba c487 e33d cfbc c0bd
000000f0: f7d3 bd3c 29f9 8fbd 86b7 53bc 1575 49bd
00000100: 903c c93d 4f5c 8b3c 44bc f73d 61c4 fdbd
00000110: f1af 7cbd 83a7 3bbc 781b 333e bea5 90ba
00000120: 26f8 123e 1283 78bd 5645 21be 5da4 07be
00000130: 2bee 87bd fcbb ac3d 9d67 9f3d a49a 6f3d
00000140: 8e06 81bd f0dc 60bd 4846 e63b a800 26bb
00000150: 3e0d 003e 4ac8 1239 d438 e93d e3df 05be
00000160: 7d22 9fbd c67c 103b 1b5e 2dbd f3b4 acbd
00000170: c984 073d 1f2a 173e 2afc 1fbe 2d78 113c
00000180: 4d14 a63d d6e8 d33c 6614 dfbd 206c 21be
00000190: b812 f2bd 2323 813d 3512 34bd 3a2f 68bd
000001a0: 6891 1b3d 3f11 94bd 16df 2ebe 4ade febd
000001b0: 468b 58bd fb0c 1bbe a701 353e 7971 dabc
000001c0: 80a2 cc3d 04fb eabd c94e 81bc 960e 91bc
000001d0: c0dc 9c3d 633b 2fbe c79a 573c f7da ebbd
000001e0: a8c0 793d ed9d b1bc 86c2 003d e45f 15be
000001f0: e355 02bd 75b8 0fbe f4bd bd3c a858 72bd
00000200: c265 4f3d 1d8e a9bd c4c7 2c3e 68cf f0bc
00000210: 9178 0abe 2c05 8b3d 8033 27bd 485a f3bb
00000220: 324b 17be c6a1 cebd 306c 8bbc 6665 64bd
00000230: a709 0d3d 05d5 9fbd cf48 fa3c 690a 23bd
00000240: 25bc 6dbd 561d 5abd d94f 6f3d e6d1 283e
00000250: f4b8 a33d 9fc8 42bd 7d34 6a3c 3c03 6dbd
00000260: 126d e3bc c985 b3bd 21b4 d43d aa52 b3bd
00000270: e731 cf3d aced b33d 97bb 323d 8d1f 19bd
00000280: 9c41 da3d 208d 853b a5d2 593d 50aa a9bd
00000290: 3382 173d eff7 50bd aedc 4bbd cd6e a33d
000002a0: e52a 27bd 057c 20bd dd03 dcbd 126d 643c
000002b0: 3c00 0bbb 7e7b 6ebd be43 31bc fdfc d6bd
000002c0: 862a 38bd 9d22 373c 7c31 293e f808 cdbd
000002d0: a60d ff3b ca93 173d 62cf 77bc dbbe a6bc
000002e0: 3b0b f13d d3cb d23d 412f df3d d52c 7c3c
000002f0: bd55 58bd dbfc 3bbd 3743 2f3d 6ede b7bd
00000300: b358 d93c a961 fc3d da0c 77bd b34a f23c
00000310: ebff 74bd a695 4c3d 9d25 b53d 94bd d83d
00000320: bbcc 06be ec80 dcbd 6c6e 333e 1c96 ddba
00000330: 8462 863c 7dd3 dbbd 7db4 77bd 69a4 85bd
00000340: 4e59 0abc 637d 163d e49c ce3c 51b2 6d3c
00000350: dd3e 06be 3c47 d4bc 6497 93bd 6e74 223e
00000360: f701 543d dccd 913c be29 943d bb28 ccbd
00000370: 8909 8ebd 43c6 ad3d aa20 173b cc88 9abd
00000380: 4379 1abe 1955 4b3d d1f0 273e 0bd7 babc
00000390: 40ab 16be 6412 e7bd a1dc d4bd cf54 103e
000003a0: d261 b93a 9c4c 2f3e a8fa d33d ce01 553d
000003b0: da83 103d c2d7 85bd 33c5 93bd e9f7 9dbd
000003c0: da2c e93d 372a 84bd 9362 063c 32ed c2bd
000003d0: d2c6 1c3d 57bb fdbd 1bae 1ebe eddf 9bbc
000003e0: 7231 b33c 4d8f c73d f816 e1bd e73e 0dbe
000003f0: 1533 553c 40db e3bc 115b 92bc 29d6 c0bd

lstm.weight_hh_l0 f4 [256, 64]
0.07557351 -0.08134634 -0.021435881 -0.09553124 -0.09846249 0.16242634 -0.0044627506 0.1351212
0.10643258 0.04453349 0.10020536 0.07309771 -0.15235889 -0.11364393 0.016333679 0.07242946
0.110914655 0.092717655 0.07646029 0.026137678 -0.011568486 -0.06318276 -0.1151114 -0.11327735
0.08257081 0.05567989 0.0579751 0.009114994 0.037999667 0.022512997 -0.01292443 -0.014539951
-0.06675253 -0.06444436 -0.035806544 0.046843126 0.023025269 -0.02957604 0.08293216 0.036722083
-0.015630085 0.11397449 0.055597786 -0.08127278 -0.08219142 -0.005655036 -0.14656949 0.08981839
0.043305337 0.06538197 -0.03015512 -0.026122782 -0.028832167 0.14913501 -0.12964839 0.022880461
0.083241686 -0.14714207 0.09691891 -0.06880173 -0.014366597 -0.118593335 -0.10121749 0.054190125
-0.084873706 0.0285525 -0.08413871 -0.058353577 -0.01827083 0.13175674 -0.041643906 0.06265186
-0.032778606 0.11749435 0.03207712 0.07402759 -0.08998889 -0.12057395 0.13952261 -0.12886687
0.0075605446 0.036122102 0.13706844 0.008511706 -0.073959716 -0.026556408 0.024153026 0.027996529
0.1394243 -0.06649995 0.022698602 -0.098806016 0.08846242 0.07138874 0.057320938 -0.08862655
-0.024021348 0.051839333 -0.083867125 -0.13630603 -0.106296346 0.03701332 0.10730499 0.066876486
-0.006685124 0.023292487 -0.054568365 0.04264204 -0.06059908 -0.050319962 0.06888637 -0.13373491
0.02608507 -0.09462304 -0.02789068 -0.049654655 0.031883974 -0.08147777 0.13331424 -0.12960875
0.09715227 -0.091813706 0.09774253 -0.026079325 -0.021922916 -0.014724393 0.06190567 0.005581416
-0.13526961 0.044438716 -0.08983797 0.14555475 -0.0011894447 -0.05289652 -0.057641953 0.08253469
-0.061607253 0.06439643 0.06532903 0.021025883 0.039466687 -0.08398094 0.10997266 -0.053443886
-0.05305848 -0.0441824 0.03340296 0.09180101 0.0022025881 0.019070704 -0.1307972 0.009757649
-0.15015638 0.07620858 -0.05743336 -0.053299937 0.05424354 0.15841676 -0.07974644 -0.076460086
0.020646807 0.019530574 -0.018967904 -0.050336417 -0.054782942 0.0001126797 0.09730396 -0.07618378
0.03905506 0.07136179 0.051134657 -0.05898437 0.045567922 0.12984145 0.10940798 0.1410945
-0.01970212 0.0712427 0.08162444 -0.11129454 0.04064665 -0.069515556 0.0534951 -0.031386
-0.012440951 0.118890025 -0.11639618 -0.14630109 -0.04648657 0.117207706 0.055704832 -0.037618868
0.07962033 -0.10416601 -0.0038458493 0.057946343 0.033455163 -0.020755129 0.021295283 0.04909187
-0.009897907 0.008789065 -0.01960377 0.10819671 0.02397641 0.06911284 -0.013305345 0.08066071
0.15081938 0.1320121 -0.024826037 0.13193864 -0.010008745 0.040078335 0.07008663 0.0863025
-0.08406217 0.1321506 0.0016837002 0.026417565 0.15330799 -0.0012539551 0.040720645 0.06790709
-0.14575632 -0.13890746 -0.13671397 -0.071278356 -0.053970862 -0.06772348 0.081646346 0.1331108
0.08334338 0.07061398 0.09207888 -0.12283999 -0.051335584 -0.0032467989 0.14989471 0.031459935
0.0057294285 -0.14924924 -0.10937295 -0.103865206 0.052097805 -0.06874832 -0.16113919 -0.053805806
0.019822324 -0.038503207 0.104994155 0.006697831 -0.075042956 -0.06699957 0.00069427356 -0.11363369
00000000: 49c6 9a3d e998 a6bd 4d9a afbc e2a5 c3bd
00000010: b4a6 c9bd 1753 263e 443c 92bb 365d 0a3e
00000020: 53f9 d93d c068 363d 7838 cd3d 41b4 953d
00000030: f803 1cbe 26be e8bd 35ce 853c e655 943d
00000040: 3927 e33d c1e2 bd3d 3697 9c3d af1e d63c
00000050: bf89 3dbc f665 81bd 87bf ebbd f5fd e7bd
00000060: e31a a93d 9910 643d 4c77 6d3d 0e57 153c
00000070: 8aa5 1b3d 2d6d b83c fdc0 53bc fa38 6ebc
00000080: 8db5 88bd 68fb 83bd e2a9 12bd 94de 3f3d
00000090: 7d9f bc3c 7449 f2bc 56d8 a93d e569 163d
000000a0: aa0a 80bc 756b e93d 81ba 633d 5872 a6bd
000000b0: fa53 a8bd e14d b9bb 5016 16be b4f2 b73d
000000c0: f060 313d fbe6 853d df07 f7bc 72ff d5bc
000000d0: 7031 ecbc d9b6 183e 8cc2 04be ce6f bb3c
000000e0: 9e7a aa3d 69ac 16be 6c7d c63d ece7 8cbd
000000f0: e061 6bbc 10e1 f2bd 1e4b cfbd 77f6 5d3d
00000100: 44d2 adbd efe6 e93c ea50 acbd 2904 6fbd
00000110: b5ac 95bc 3deb 063e cd92 2abd 9e4f 803d
00000120: dc42 06bd e1a0 f03d 4c63 033d c79b 973d
00000130: 184c b8bd 7aef f6bd 04df 0e3e adf5 03be
00000140: 72be f73b c5f4 133d ab5b 0c3e af74 0b3c
00000150: 3178 97bd d38c d9bc 91dc c53c fa58 e53c
00000160: 3ec5 0e3e 2031 88bd 6bf2 b93c cf5a cabd
00000170: c92b b53d 4234 923d 5cc9 6a3d d681 b5bd
00000180: 6bc8 c4bc 7b55 543d 87c2 abbd cf93 0bbe
00000190: e6b1 d9bd 479b 173d b8c2 db3d 8af6 883d
000001a0: e20e dbbb e3cf be3c 1483 5fbd 6ba9 2e3d
000001b0: be36 78bd 4e1c 4ebd 4c14 8d3d cef1 08be
000001c0: 5bb0 d53c b9c9 c1bd ff7a e4bc ae62 4bbd
000001d0: c598 023d d1dd a6bd 8783 083e 28b8 04be
000001e0: c5f7 c63d d308 bcbd 3c2d c83d 4fa4 d5bc
000001f0: b097 b3bc 953e 71bc cd90 7d3d 50e4 b63b
00000200: 1e84 0abe 5f05 363d f8fc b7bd 4e0c 153e
00000210: 24e7 9bba 05aa 58bd f819 6cbd f307 a93d
00000220: e357 7cbd 47e2 833d 3acb 853d 793e ac3c
00000230: d2a7 213d 33fe abbd 5939 e13d fae7 5abd
00000240: d953 59bd 9bf8 34bd 8bd1 083d 2b02 bc3d
00000250: 4c59 103b 2a3a 9c3c b4ef 05be 8cde 1f3c
00000260: 98c2 19be 3e13 9c3d 3e3f 6bbd 0951 5abd
00000270: 792e 5e3d 0138 223e 1a52 a3bd 1b97 9cbd
00000280: 7e23 a93c 95fe 9f3c 9462 9bbc 8f2d 4ebd
00000290: 1464 60bd 744e ec38 4c47 c73d 3e06 9cbd
000002a0: 33f8 1f3d 2126 923d 9372 513d 9899 71bd
000002b0: 6ea5 3a3d 28f5 043e 4b11 e03d 147b 103e
000002c0: 5766 a1bc b1e7 913d b72a a73d 64ee e3bd
000002d0: 1a7d 263d 2c5e 8ebd ae1d 5b3d 9b8e 00bd
000002e0: 21d5 4bbc 9d7c f33d 1f61 eebd f4cf 15be
000002f0: b468 3ebd 980a f03d c02a 643d 3e16 1abd
00000300: fc0f a33d fd54 d5bd a50a 7cbb 2559 6d3d
00000310: 4808 093d a906 aabc 7273 ae3c 8f14 493d
00000320: d52a 22bc 0300 103c 1698 a0bc 3d96 dd3d
00000330: 2d6a c43c 088b 8d3d a9fe 59bc 7131 a53d
00000340: 6570 1a3e 2e2e 073e f95f cbbc ec1a 073e
00000350: b8fb 23bc 2e29 243d 9489 8f3d 5dbf b03d
00000360: c928 acbd 7d52 073e 9baf dc3a a669 d83c
00000370: c5fc 1c3e c05b a4ba b1ca 263d df12 8b3d
00000380: 2541 15be c23d 0ebe bffe 0bbe 63fa 91bd
00000390: 8d10 5dbd 9cb2 8abd 3336 a73d 334e 083e
000003a0: efaf aa3d 109e 903d da93 bc3d 8893 fbbd
000003b0: 4345 52bd 3fc8 54bb 007e 193e 22dc 003d
000003c0: eebd bb3b cbd4 18be edfe dfbd 48b7 d4bd
000003d0: 8264 553d ebcb 8cbd ac01 25be 7a63 5cbd
000003e0: 6d62 a23c 8ab5 1dbd 2d07 d73d 7b79 db3b
000003f0: 1fb0 99bd 1237 89bd e9ff 353a c8b8 e8bd

lstm.bias_ih_l0 f4 [256]
0.099558376 -0.04997905 0.119379245 0.016115818 -0.004046355 0.06595831 0.1162028 -0.03765018
0.063599415 0.027054034 -0.023837619 0.10826435 0.05985021 -0.06634118 0.0054551265 0.1225291
-0.010492868 0.13728124 -0.0649865 0.077917755 0.08945129 0.08619624 0.054290205 0.07332223
0.03698973 0.11049268 -0.008626038 0.104208305 0.15724297 -0.07415216 0.11965062 0.05865511
-0.036279406 -0.02816674 -0.02315261 0.1321043 0.11873812 0.014962898 -0.039779022 -0.07488859
-0.03523554 0.03371003 -0.08323098 -0.08935197 -0.06408297 0.040411856 0.09447447 0.0383087
0.15209642 0.044942528 -0.017902046 0.08749463 -0.025244221 0.1413443 0.0019709254 -0.036122505
0.018068505 -0.02452734 0.020539226 -0.013012354 0.017470915 0.012784739 -0.07568054 -0.059174325
-0.047009874 -0.07614379 -0.12251204 0.16033986 0.11000352 0.10527095 0.08637795 0.061420567
0.0018577345 0.02947808 -0.031166775 0.1061197 0.08924174 -0.06820526 0.043629576 -0.054499518
0.14887258 0.043760955 0.04315659 -0.034972187 0.0498809 0.065258324 0.036241516 -0.041231427
0.0074672564 -0.06959049 -0.058305558 -0.07677602 -0.06722986 0.17438373 -0.097629614 0.000896426
0.03258187 0.0021681448 -0.043582868 0.06841691 0.020373166 0.039487064 0.14993048 -0.033219766
0.033651028 0.12304049 -0.0018440697 -0.047346693 0.1151252 -0.09665068 -0.07398437 -0.06730573
0.074183196 0.12509313 -0.06360356 -0.024444563 0.14929467 0.13927156 0.10679596 -0.07508536
0.11425611 0.031001274 -0.057140537 0.12110103 -0.076655194 0.04781511 -0.061734386 0.16221257
-0.00417346 -0.0480893 0.06530426 0.117836826 0.0009987721 0.074662544 -0.030415686 -0.054658987
-0.08463244 -0.11357515 0.10645924 0.03541029 -0.08591658 -0.12234791 0.087696984 0.0114142755
-0.09973164 0.014709806 -0.035850182 0.019712657 -0.05123406 -0.0329873 -0.06952311 -0.084478654
0.028935151 0.048483007 0.02863537 0.07859624 -0.040659286 -0.03562524 -0.068106815 -0.1035648
-0.069074586 -0.016025433 0.13022839 -0.12043179 0.10851244 0.06261202 0.07047356 0.06484801
0.059485864 0.1063838 0.04945749 -0.029091118 0.036163867 -0.010106109 -0.06476933 0.051387563
0.15769044 0.08728318 -0.07015573 -0.006525239 0.06873618 0.05591054 -0.10081052 -0.010764985
-0.012299115 0.10857302 0.028531872 -0.04563821 -0.045992386 0.099369414 -0.040581644 0.048400454
0.14997965 -0.07373723 -0.009373679 -0.082345985 -0.0021529323 0.09529689 0.0033620312 0.08498592
-0.033923794 0.098266676 -0.046622675 0.1321489 0.021315834 0.13852371 0.027505608 0.090269595
-0.047251433 0.048161566 0.13233997 -0.06343557 0.11509848 0.07998877 -0.046933204 -0.041447405
0.13840678 -0.029665742 0.08036806 0.011090753 0.14161241 -0.04578664 0.0014704858 0.08349892
-0.027151292 0.01484003 -0.029396487 0.13369673 0.10145577 -0.05969876 0.07778145 0.112275794
0.09385088 0.15533413 -0.001426755 0.06272551 0.14284392 0.12430455 0.0079038935 0.029407002
0.060753617 0.13202435 -0.02425621 0.010761665 0.07758141 0.021015462 -0.0030159492 0.12556729
-0.0032511654 0.12064036 0.0035989964 -0.1148514 -0.08602169 0.059061002 0.1008754 0.04180877
00000000: 43e5 cb3d d5b6 4cbd 1b7d f43d 5205 843c
00000010: 4997 84bb 2715 873d bcfb ed3d 1337 1abd
00000020: 6940 823d 6ca0 dd3c 1c47 c3bc b3b9 dd3d
00000030: 7e25 753d e2dd 87bd ebc0 b23b 89f0 fa3d
00000040: 47ea 2bbc 7493 0c3e a417 85bd 5893 9f3d
00000050: 3d32 b73d a787 b03d 685f 5e3d f729 963d
00000060: 8b82 173d fc49 e23d 3a54 0dbc 2a6b d53d
00000070: 4d04 213e 16dd 97bd 620b f53d 5740 703d
00000080: b799 14bd efbd e6bc 8baa bdbc 5a46 073e
00000090: f92c f33d f126 753c 54ef 22bd 305f 99bd
000000a0: 2453 10bd 8713 0a3d 0175 aabd 2afe b6bd
000000b0: ef3d 83bd e786 253d d57b c13d 95e9 1c3d
000000c0: 2abf 1b3e a815 383d 50a7 92bc 6230 b33d
000000d0: f8cc cebc 8fbc 103e a42a 013b 31f5 13bd
000000e0: 6704 943c 8fed c8bc e141 a83c c531 55bc
000000f0: 2a1f 8f3c 1577 513c 66fe 9abd c760 72bd
00000100: 6d8d 40bd 46f1 9bbd 98e7 fabd 2230 243e
00000110: 8749 e13d 4c98 d73d ece6 b03d 2294 7b3d
00000120: 3a7f f33a 047c f13c 7751 ffbc 4955 d93d
00000130: 60c4 b63d 33af 8bbd edb4 323d e33a 5fbd
00000140: 0e72 183e b03e 333d f7c4 303d ff3e 0fbd
00000150: ea4f 4c3d 28a6 853d fc71 143d 49e2 28bd
00000160: e3af f43b 7585 8ebd cfd1 6ebd bf3c 9dbd
00000170: cfaf 89bd a691 323e 09f2 c7bd 21fe 6a3a
00000180: 9174 053d 6f17 0e3b f383 32bd 2a1e 8c3d
00000190: a0e5 a63c 30bd 213d 6087 193e 7311 08bd
000001a0: a9d5 093d a7fc fb3d b6b4 f1ba 9bee 41bd
000001b0: c3c6 eb3d cbf0 c5bd 1e85 97bd 96d7 89bd
000001c0: 5ced 973d 6a18 003e 9542 82bd f73f c8bc
000001d0: b4e0 183e 349d 0e3e d7b7 da3d 5ac6 99bd
000001e0: 1bff e93d 62f6 fd3c 320c 6abd d103 f83d
000001f0: 66fd 9cbd c7d9 433d 32dd 7cbd 0d1b 263e
00000200: 85c1 88bb 49f9 44bd 3dbe 853d 6f54 f13d
00000210: 3be9 823a ade8 983d 512a f9bc 1ae2 5fbd
00000220: c653 adbd 179a e8bd 4d07 da3d 610a 113d
00000230: 08f5 afbd 8b91 fabd 7a9a b33d f102 3b3c
00000240: 1a40 ccbd 6601 713c a4d7 12bd 707c a13c
00000250: ceda 51bd b11d 07bd 2262 8ebd 2503 adbd
00000260: 6909 ed3c 1e96 463d b994 ea3c 11f7 a03d
00000270: 5a8a 26bd c6eb 11bd 967b 8bbd c819 d4bd
00000280: fa76 8dbd c547 83bc 975a 053e f1a4 f6bd
00000290: c53b de3d bb3a 803d 7154 903d 09cf 843d
000002a0: 73a7 733d c0df d93d f093 4a3d 7f50 eebc
000002b0: 9020 143d 1894 25bc c8a5 84bd c47b 523d
000002c0: 9a79 213e 86c1 b23d cfad 8fbd acd1 d5bb
000002d0: 8ec5 8c3d 7302 653d bf75 cebd 9f5f 30bc
000002e0: 3a82 49bc 885b de3d acbb e93c 22ef 3abd
000002f0: 8362 3cbd 3182 cb3d f038 26bd 8e3f 463d
00000300: 4494 193e 8b03 97bd 0f94 19bc 03a5 a8bd
00000310: 3618 0dbb 042b c33d 8655 5c3b 190d ae3d
00000320: adf3 0abd 0a40 c93d 6bf7 3ebd 0b52 073e
00000330: 8b9e ae3c 29d9 0d3e 7153 e13c 44df b83d
00000340: b88a 41bd 1045 453d 2184 073e 82ea 81bd
00000350: c0b8 eb3d 27d1 a33d 083d 40bd c1c4 29bd
00000360: 82ba 0d3e 9205 f3bc 0298 a43d fdb5 353c
00000370: d802 113e c68a 3bbd 51bd c03a 7b01 ab3d
00000380: 636c debc 9923 733c e7d0 f0bc cce7 083e
00000390: 0bc8 cf3d b086 74bd e14b 9f3d daf0 e53d
000003a0: e434 c03d e90f 1f3e f401 bbba 3b76 803d
000003b0: ad45 123e 6293 fe3d 557f 013c f4e6 f03c
000003c0: c9d8 783d 6431 073e f6b4 c6bc b251 303c
000003d0: 01e3 9e3d 9e28 ac3c 3ba7 45bb b694 003e
000003e0: 8111 55bb 4b12 f73d 24dd 6b3b 3637 ebbd
000003f0: 242c b0bd f3e9 713d c397 ce3d ac3f 2b3d

lstm.bias_hh_l0 f4 [256]
0.12175377 0.057827692 0.04941467 0.16101755 0.12189098 0.14555614 -0.08349819 -0.06686553
0.15172508 0.15704054 0.077122554 0.10021139 0.023406887 0.079995565 -0.051670387 0.03827204
0.1657465 -0.052524254 -0.06705573 0.025847763 0.07713706 -0.07389013 0.084483154 0.060510855
0.07827705 0.09831259 0.0822858 -0.007920891 -0.08125838 0.14218512 -0.022464927 -0.04188251
0.09078387 0.12533219 0.011889872 -0.055860016 -0.07110014 0.10262426 0.078601144 0.08031084
0.15247382 -0.03154539 0.06411392 0.14621995 0.0105102165 -0.040446732 -0.04747683 0.0034497196
-0.014974397 -0.0704153 -0.08821346 0.08945754 0.015050228 0.08405479 0.11687158 -0.08227662
-0.003274546 0.15657817 0.011553744 0.09209052 -0.10524398 0.14357772 0.06419571 -0.029851014
0.07271447 0.119826645 0.069487505 0.063302524 -0.011752577 0.009466391 -0.08483948 0.14629343
0.06699911 0.07208909 -0.0519884 -0.047870506 0.042378135 0.10132269 0.11849493 0.029475233
0.10738138 0.008170865 0.007974669 0.16385373 0.061064932 0.17206547 -0.11846716 0.056226183
0.017452052 0.11432143 0.08249162 0.012581769 0.11143049 -0.02260864 -0.012110592 0.09706834
-0.045392923 0.08256077 0.031757813 -0.094010755 -0.024370492 -0.03825404 -0.07469891 -0.032697763
0.078473784 0.08993833 0.09831117 0.06803228 -0.061139684 -0.106783055 0.15813935 0.01910602
0.15350546 -0.09341888 -0.034000978 0.034479316 0.13981114 -0.060832705 -0.0070276316 -0.06409004
0.109145515 0.048600115 -0.008537276 0.10653668 -0.08408965 0.015097971 -0.05078392 0.028319802
-0.006775084 -0.020653145 0.118821256 -0.106248476 -0.041619357 -0.019663675 -0.037828997 0.12897386
0.04730125 0.10097008 0.08768342 -0.0022252528 0.084686205 -0.024505585 0.09906113 0.023663377
0.035483465 0.078688756 -0.03785467 0.11029099 0.10231134 -0.0047112824 -0.03326351 -0.1437825
0.092689864 -0.10815446 -0.113469556 0.101734586 0.0260913 0.11635202 -0.0975472 -0.06621881
-0.02573434 0.08726825 -0.082379326 -0.10630479 -0.021814985 -0.06640543 0.12937528 0.06220978
-0.09202838 -0.05559128 -0.0014375928 -0.081314854 -0.10584665 0.111225076 -0.087380394 0.07779971
-0.0032689793 -0.101439595 -0.072898254 -0.052726354 -0.064030565 -0.090007894 0.0023425908 -0.09359509
0.10411709 -0.13079135 -0.027361773 0.09275424 -0.088663585 -0.031154152 -0.10552115 -0.09542598
0.099856675 0.06866985 0.013033257 0.12921292 0.032958336 -0.05485774 -0.118327074 0.041137025
-0.022921644 0.15897925 -0.007895306 0.15863113 0.03360462 -0.021620054 -0.10637107 0.16670638
-0.06065385 0.1182476 -0.008425375 -0.06029913 -0.020354861 0.09391456 0.101664744 -0.0644632
-0.031578586 0.050813932 0.07917278 -0.084448576 0.07690801 0.022762934 -0.090105064 0.098790795
-0.070430085 0.042103246 -0.029043851 -0.04636576 0.026315024 -0.05534478 0.15352091 -0.086845025
0.10802944 0.046113223 0.0177435 0.041209172 -0.0326457 -0.013570504 0.13458245 -0.05629479
0.11269353 -0.079136364 -0.031170625 0.11264474 0.077565484 -0.07308108 -0.031736225 0.10003338
0.03455372 0.15997587 -0.09154003 0.041590173 -0.12323285 0.079039805 -0.030981837 0.046120003
00000000: 0a5a f93d bbdc 6c3d 0967 4a3d c9e1 243e
00000010: faa1 f93d ab0c 153e 1901 abbd ccf0 88bd
00000020: d25d 1b3e 3ccf 203e 6ef2 9d3d a13b cd3d
00000030: cdbf bf3c b7d4 a33d 54a4 53bd 25c3 1c3d
00000040: 73b9 293e ac23 57bd 8454 89bd b0be d33c
00000050: 09fa 9d3d b553 97bd 8105 ad3d 3bda 773d
00000060: b84f a03d 1c58 c93d 7585 a83d a0c6 01bc
00000070: cb6a a6bd fa98 113e 5e08 b8bc ff8c 2bbd
00000080: e5ec b93d 1557 003e bdcd 423c 79cd 64bd
00000090: f39c 91bd ab2c d23d a3f9 a03d 027a a43d
000000a0: 1922 1c3e bd35 01bd 294e 833d afba 153e
000000b0: 0b33 2c3c 79ab 25bd 1177 42bd b114 623b
000000c0: 2c57 75bc e635 90bd 42a9 b4bd 8435 b73d
000000d0: 3b95 763c eb24 ac3d 5e5a ef3d a580 a8bd
000000e0: c499 56bb 0756 203e ea4b 3d3c f499 bc3d
000000f0: 288a d7bd 0a06 133e 0a79 833d 1d8a f4bc
00000100: 53eb 943d ac67 f53d 774f 8e3d c1a4 813d
00000110: e18d 40bc ec18 1b3c 52c0 adbd f2cd 153e
00000120: d436 893d 72a3 933d caf1 54bd dd13 44bd
00000130: b294 2d3d 4582 cf3d 78ad f23d 0b76 f13c
00000140: c5ea db3d 17df 053c 30a8 023c 46c9 273e
00000150: 391f 7a3d ee31 303e e99e f2bd 6d4d 663d
00000160: 9bf7 8e3c 5b21 ea3d 5ef1 a83d c423 4e3c
00000170: ab35 e43d c135 b9bc 816b 46bc c4cb c63d
00000180: eeed 39bd 9f15 a93d 7b14 023d b688 c0bd
00000190: a0a4 c7bc 45b0 1cbd befb 98bd 17ee 05bd
000001a0: ddb6 a03d 9631 b83d 5e57 c93d 8254 8b3d
000001b0: 9b6d 7abd 13b1 dabd 48ef 213e 3a84 9c3c
000001c0: 8930 1d3e 6652 bfbd 9c44 0bbd 2f3a 0d3d
000001d0: a72a 0f3e b72b 79bd 0c48 e6bb a441 83bd
000001e0: af87 df3d ea10 473d eedf 0bbc e72f da3d
000001f0: 3237 acbd 7b5d 773c cd02 50bd eefe e73c
00000200: 8601 debb c930 a9bc 8f58 f33d cd98 d9bd
00000210: 0f79 2abd b715 a1bc 94f2 1abd b911 043e
00000220: f5be 413d 67c9 ce3d 5d93 b33d 8cd5 11bb
00000230: f66f ad3d f0bf c8bc 90e0 ca3d b3d9 c13c
00000240: 1c57 113d 9227 a13d 800d 1bbd 3ee0 e13d
00000250: 9c88 d13d 1a61 9abb 513f 08bd b83b 13be
00000260: 2fd4 bd3d 1680 ddbd ba62 e8bd 395a d03d
00000270: 6cbd d53c f849 ee3d d4c6 c7bd ba9d 87bd
00000280: d3d0 d2bc b2b9 b23d 7eb6 a8bd 53b6 d9bd
00000290: 57b5 b2bc 92ff 87bd f47a 043e afcf 7e3d
000002a0: 6079 bcbd afb3 63bd 9c6d bcba 6788 a6bd
000002b0: 21c6 d8bd f9c9 e33d 7ef4 b2bd 7455 9f3d
000002c0: 5f3c 56bb 90bf cfbd ae4b 95bd 97f7 57bd
000002d0: 7522 83bd 0f56 b8bd 2786 193b c8ae bfbd
000002e0: 573b d53d 2bee 05be cc25 e0bc eff5 bd3d
000002f0: 4195 b5bd fe36 ffbc 791b d8bd b26e c3bd
00000300: a881 cc3d c7a2 8c3d 7189 553c 6450 043e
00000310: 52ff 063d 82b2 60bd 7755 f2bd 4c7f 283d
00000320: 2cc6 bbbc 75cb 223e 505b 01bc 3370 223e
00000330: ffa4 093d 8a1c b1bc 13d9 d9bd 14b5 2a3e
00000340: 2c70 78bd cc2b f23d 960a 0abc 38fc 76bd
00000350: 3dbf a6bc 4756 c03d 9b35 d03d 4805 84bd
00000360: 8c58 01bd 4522 503d 5725 a23d 60f3 acbd
00000370: f281 9d3d 5579 ba3c 0189 b8bd d452 ca3d
00000380: a63d 90bd 7474 2c3d 5fed edbc 06ea 3dbd
00000390: 9b92 d73c 35b1 62bd 9634 1d3e cedb b1bd
000003a0: 8a3e dd3d 38e1 3c3d d15a 913c f3ca 283d
000003b0: 7fb7 05bd d256 5ebc fbcf 093e 5e95 66bd
000003c0: decb e63d 3f12 a2bd 8a59 ffbc 49b2 e63d
000003d0: a7da 9e3d 89ab 95bd d8fd 01bd 4dde cc3d
000003e0: 3488 0d3d b7d0 233e 5779 bbbd 755a 2a3d
000003f0: 8161 fcbd 9fdf a13d 9fcd fdbc 54e8 3c3d

lstm.weight_ih_l1 f4 [256, 64]
-0.018119011 0.034725774 -0.08130067 -0.04919837 0.06916233 -0.08050935 0.021509573 0.014951497
0.08132863 -0.04954458 0.09249192 -0.016617948 -0.05992688 0.02847894 -0.0880907 0.045242235
-0.06539702 0.008162685 -0.07211055 -0.025485037 -0.095584564 -0.06777629 0.10670692 0.079839416
-0.06100101 0.0040215063 0.039633088 0.062216766 0.07402247 -0.077287264 -0.04234492 0.09939636
0.010378393 -0.05991921 -0.058953088 -0.057909627 -0.1475047 -0.09865926 0.11459388 -0.021208549
0.08064374 -0.1184781 0.040326577 0.025817914 -0.1238686 -0.010548033 0.033749785 -0.10716607
0.068618946 0.092645235 -0.08243966 -0.060006883 0.09536708 -0.015571837 -0.062356126 0.0693753
-0.10585712 0.04396932 -0.06851356 0.036437172 -0.05689856 -0.03337965 -0.0750279 0.07039154
-0.15059017 0.04282507 0.066780075 -0.10300929 0.11297169 0.06967349 -0.07306456 -0.011940043
0.05994876 -0.041688897 0.099381104 -0.016031742 -0.021578562 -0.010410041 0.05208301 0.13647538
-0.18040617 -0.014164872 0.013678208 -0.04461065 -0.035515014 -0.0025501533 -0.059661172 -0.11661428
-0.01866776 -0.012258126 0.054857146 -0.013525902 0.08282648 0.0013592402 -0.11257951 0.07357984
-0.000775603 0.16756399 -0.009362028 -0.021972314 0.0754596 -0.06697019 0.08513912 -0.11425208
-0.05605343 0.013364569 -0.12172691 -0.016888289 -0.11929106 -0.067612536 -0.014224991 -0.02484567
0.12149467 -0.008582144 -0.0064299772 0.0075799027 -0.058546647 0.059475873 -0.1360701 0.09560503
-0.029513372 -0.15830319 -0.03495854 -0.03252659 -0.15396948 -0.12902214 0.009643524 -0.0004093987
-0.15856081 -0.037493467 -0.0103464285 -0.024173195 0.019968087 0.08558525 0.023515915 -0.010302532
0.10071937 -0.019205183 0.009749371 0.023965035 -0.013600885 0.11062151 0.15488963 0.0210883
-0.032192044 -0.034570258 0.021517722 0.05129776 -0.12900633 -0.14205694 -0.019714221 -0.0057882406
0.06983151 0.060020793 0.030411843 0.11863815 0.053143293 -0.07414706 0.09771226 -0.069603525
-0.12150546 0.032957934 -0.057775464 -0.0060339263 0.024949491 0.010238192 -0.048669945 0.082210876
0.054809116 0.052134868 0.06197247 -0.093642585 0.0818873 -0.034828056 -0.057481725 -0.0026939618
0.019960979 0.10644058 0.002255217 0.07731602 0.03095959 -0.051819984 -0.08361744 -0.03856577
-0.0669053 0.084638886 0.094530895 0.093122184 0.052487202 0.13644485 -0.015776664 -0.018713443
-0.056349855 -0.09611849 -0.105934575 0.005574629 -0.08059272 -0.07907147 0.0182047 -0.10333017
-0.109814346 -0.12725054 0.026117034 0.016822511 -0.11497575 -0.113642216 0.036208943 0.0949015
0.025777763 0.049305484 0.02235056 0.029618079 0.058368105 -0.05219185 0.07505247 -0.0050870553
0.05136484 -0.09255128 -0.058294207 -0.07824241 -0.049463756 0.09409782 -0.040976875 0.05031779
0.010594568 0.036338568 -0.04652445 -0.06307477 -0.1127668 0.010940217 -0.12393234 -0.1254188
0.15508296 0.043620735 -0.0101223495 -0.042194255 0.110070765 -0.0162158 -0.10322016 0.06865567
0.11890254 0.02301411 0.09768025 -0.06561873 0.023442559 0.131528 -0.104249716 -0.09054642
0.0063934997 0.043016866 0.009508582 -0.003661518 0.08804242 0.08047784 -0.114789926 -0.10871712
00000000: 526e 94bc 9d3c 0e3d f780 a6bd 3b84 49bd
00000010: fba4 8d3d 16e2 a4bd d834 b03c 20f7 743c
00000020: a08f a63d 42ef 4abd 676c bd3d 5d22 88bc
00000030: e375 75bd aa4c e93c e668 b4bd ec4f 393d
00000040: dfee 85bd c8bc 053c b2ae 93bd ffc5 d0bc
00000050: d7c1 c3bd 4cce 8abd 2889 da3d d982 a33d
00000060: 32dc 79bd d7c6 833b 4e56 223d 02d7 7e3d
00000070: 1899 973d c948 9ebd de71 2dbd 5290 cb3d
00000080: 230a 2a3c d86d 75bd cb78 71bd a532 6dbd
00000090: 790b 17be de0d cabd 32b0 ea3d 8dbd adbc
000000a0: 8c28 a53d a5a4 f2bd 7b2d 253d 1780 d33c
000000b0: d2ae fdbd a8d1 2cbc 373d 0a3d e279 dbbd
000000c0: 1788 8c3d c9bc bd3d 20d6 a8bd c7c9 75bd
000000d0: d14f c33d 0521 7fbc 2369 7fbd a314 8e3d
000000e0: 9ecb d8bd 2c19 343d d650 8cbd 253f 153d
000000f0: 770e 69bd 1ab9 08bd 3aa8 99bd 7129 903d
00000100: 4f34 1abe 5769 2f3d fec3 883d 89f6 d2bd
00000110: b45d e73d fab0 8e3d dfa2 95bd 2ca0 43bc
00000120: d58c 753d fac1 2abd 5288 cb3d 0055 83bc
00000130: 86c5 b0bc e08e 2abc ff54 553d 34c0 0b3e
00000140: 65bc 38be c713 68bc 901a 603c a8b9 36bd
00000150: 3178 11bd 7920 27bb 465f 74bd 78d3 eebd
00000160: 21ed 98bc 4fd6 48bc e3b1 603d bf9b 5dbc
00000170: eea0 a93d 8828 b23a 1690 e6bd 07b1 963d
00000180: d651 4bba e595 2b3e 3163 19bc 48ff b3bc
00000190: 908a 9a3d ab27 89bd 6b5d ae3d fffc e9bd
000001a0: 4898 65bd 11f7 5a3c f54b f9bd 4f59 8abc
000001b0: df4e f4bd 7178 8abd f00f 69bc 2689 cbbc
000001c0: 33d2 f83d 1f9c 0cbc 8fb2 d2bb d560 f83b
000001d0: 9cce 6fbd f99c 733d f655 0bbe 92cc c33d
000001e0: 07c6 f1bc 3b1a 22be b030 0fbd 9a3a 05bd
000001f0: 2daa 1dbe 611e 04be dfff 1d3c 90a4 d6b9
00000200: c45d 22be c092 19bd 1184 29bc dd06 c6bc
00000210: 1d94 a33c 5247 af3d 73a4 c03c f4cb 28bc
00000220: f545 ce3d 3054 9dbc d3bb 1f3c 5252 c43c
00000230: 3fd6 5ebc 888d e23d 639b 1e3e 5fc1 ac3c
00000240: cedb 03bd 8b99 0dbd ef45 b03c 9a1d 523d
00000250: 3c1a 04be 6077 11be b87f a1bc 48ab bdbb
00000260: d303 8f3d 5dd8 753d 4222 f93c 8ff8 f23d
00000270: c8ac 593d 6ada 97bd 5e1d c83d 4b8c 8ebd
00000280: dbd7 f8bd e6fe 063d f7a5 6cbd 3eb8 c5bb
00000290: e062 cc3c 17be 273c 235a 47bd 2d5e a83d
000002a0: 867f 603d 5f8b 553d d8d6 7d3d afc7 bfbd
000002b0: 87b4 a73d dda7 0ebd f571 6bbd 2e8d 30bb
000002c0: 3585 a33c 85fd d93d 43cc 133b dd57 9e3d
000002d0: f79e fd3c 3141 54bd 9f3f abbd 24f7 1dbd
000002e0: a505 89bd 2757 ad3d 6a99 c13d d8b6 be3d
000002f0: d2fc 563d 33b8 0b3e 103e 81bc ef4c 99bc
00000300: 1bcf 66bd c5d9 c4bd 3af4 d8bd 61ab b63b
00000310: cc0d a5bd 39f0 a1bd 0622 953c c59e d3bd
00000320: 58e6 e0bd f74d 02be 64f3 d53c 5dcf 893c
00000330: 6878 ebbd 40bd e8bd d44f 143d b85b c23d
00000340: e32b d33c 8cf4 493d 8618 b73c 9da1 f23c
00000350: 6513 6f3d 1fc7 55bd 1cb5 993d 50b1 a6bb
00000360: f063 523d 878b bdbd e8c5 6ebd 8f3d a0bd
00000370: 829a 4abd 5cb6 c03d 5ed7 27bd 071a 4e3d
00000380: d794 2d3c c0d7 143d 6c90 3ebd 582d 81bd
00000390: 48f2 e6bd 993e 333c 3dd0 fdbd c96d 00be
000003a0: 11ce 1e3e a8ab 323d 36d8 25bc e2d3 2cbd
000003b0: c86c e13d ffd6 84bc 1765 d3bd 589b 8c3d
000003c0: 2d83 f33d 1688 bc3c 950c c83d 1d63 86bd
000003d0: 9c0a c03c 47af 063e e080 d5bd 6770 b9bd
000003e0: 9080 d13b 7432 303d e2c9 1b3c 14f6 6fbb
000003f0: 964f b43d 91d1 a43d fb16 ebbd 15a7 debd

lstm.weight_hh_l1 f4 [256, 64]
-0.06988612 -0.1717933 0.07043328 -0.04218364 -0.00018759776 -0.02209318 -0.013800543 0.13174668
0.04364309 -0.05309108 0.12080278 -0.07758933 0.007344173 -0.094729096 -0.0016368665 -0.10505463
0.028742105 -0.03310265 0.06344634 -0.111363195 0.119631924 0.124292366 0.033859033 -0.114579
-0.11677626 -0.09353069 0.035983525 0.034517583 0.07022928 -0.0992394 0.03425635 -0.090517215
-0.08987798 -0.06797289 0.084958725 -0.056980006 0.041493088 0.050958943 0.08095664 -0.12892781
-0.067831025 -0.0793672 -0.050561417 0.05402568 -0.038675234 0.11150403 0.12919559 -0.02750406
0.011509782 0.026747197 -0.0057811067 0.010629256 0.06913397 -0.13376379 -0.06651182 -0.03848143
0.14049129 -0.115935974 -0.075188726 -0.029000644 -0.096063785 -0.13842921 -0.0692375 0.025248114
0.11444548 0.050288968 0.058782298 0.11156774 -0.05048519 0.08239597 0.030585198 -0.083522104
0.12888727 0.04619389 -0.036678985 0.078596674 0.077942215 0.050657824 -0.033762027 0.021738784
-0.024176382 -0.02444315 -0.12130563 0.07164147 -0.0051033497 -0.0014706117 -0.04941231 -0.04389394
-0.04182337 0.060537815 -0.052261617 0.08246245 0.052740257 0.14010255 -0.114939116 0.08413417
-0.023850735 -0.05398011 -0.05582651 -0.018786144 0.07971023 -0.023638139 -0.041125152 -0.021558963
-0.07683646 -0.030868908 0.16712995 -0.14066033 -0.010367164 0.07844127 -0.032768734 0.038108483
0.10484975 -0.019484734 -0.050584793 0.008168297 0.12507634 -0.05484922 0.11897492 -0.05284213
-0.076129116 0.09734581 0.13671742 -0.015802527 0.021557992 -0.069874614 -0.09376247 -0.14533255
0.048715435 0.018849207 0.021396589 0.051107015 0.025645137 0.008988412 0.048682656 0.05167524
-0.064067885 0.06859247 0.022232605 -0.11864917 0.031164248 -0.07134021 -0.04803268 -0.038100142
-0.06599329 0.037999928 0.0094340565 0.037680104 -0.0425629 -0.07738805 -0.091553144 0.101270825
-0.111542635 -0.13208371 -0.064852506 -0.14639205 -0.07805887 0.012332123 0.10704513 -0.08037122
0.081156544 0.015342095 -0.0286868 0.13781527 0.10561477 0.12841569 -0.09403457 0.075779684
-0.11780348 -0.0434068 0.076614454 -0.03793921 -0.10304231 -0.07920687 0.11516329 -0.06634848
0.06382177 -0.104055986 0.088078514 -0.0094419895 0.033157043 0.06997672 -0.10887931 0.06551797
0.05036938 -0.0041075563 -0.06356914 0.045303795 0.022472635 0.079226814 0.008099454 0.03961908
-0.11762092 -0.0912698 -0.00026395597 -0.12959051 -0.013598939 -0.083381 0.039012123 -0.0983594
-0.079701096 0.07668278 -0.05970691 -0.080452174 0.10222183 0.11812666 0.0232777 -0.04087792
-0.03549994 -0.073123075 -0.03396187 0.038512696 -0.023877978 -0.06966452 0.13609606 -0.09073041
-0.05819885 0.13408853 0.0049549155 0.022343118 0.048643213 8.998897e-05 0.012243424 0.05683006
0.016820762 -0.08439156 0.04611589 -0.070714965 0.14377838 0.03690184 0.021895153 0.10164322
-0.006164557 0.038154844 -0.10177923 0.06583695 0.10126024 -0.037217893 -0.034528 0.014256125
-0.04454551 -0.051687095 -0.0588429 -0.10225949 0.050583556 -0.017642975 0.11363468 -0.05873545
0.076292634 -0.06530988 -0.13143937 0.03638647 0.0064907093 -0.079159245 -0.086208604 -0.06867879
00000000: 7420 8fbd 95ea 2fbe 533f 903d c1c8 2cbd
00000010: e4b5 44b9 c2fc b4bc ac1b 62bc 9ae8 063e
00000020: 19c3 323d 0876 59bd 7367 f73d 28e7 9ebd
00000030: 63a7 f03b 5401 c2bd 208c d6ba e226 d7bd
00000040: 9074 eb3c a596 07bd 28f0 813d 6312 e4bd
00000050: 9501 f53d ff8c fe3d c5af 0a3d 65a8 eabd
00000060: 6428 efbd 058d bfbd 7663 133d 4f62 0d3d
00000070: 5ed4 8f3d 073e cbbd 6350 0c3d 1761 b9bd
00000080: f211 b8bd 5f35 8bbd d7fe ad3d de63 69bd
00000090: a8f4 293d 53ba 503d 98cc a53d a705 04be
000000a0: feea 8abd 458b a2bd 7d19 4fbd 084a 5d3d
000000b0: ec69 1ebd 3a5c e43d d94b 043e 3250 e1bc
000000c0: 8693 3c3c f01c db3c 706f bdbb 5526 2e3c
000000d0: 1c96 8d3d 60f9 08be 5937 88bd b49e 1dbd
000000e0: f3dc 0f3e d76f edbd 8cfc 99bd c292 edbc
000000f0: 17bd c4bd 63c0 0dbe 64cc 8dbd 22d5 ce3c
00000100: 6462 ea3d cefb 4d3d b5c5 703d a17d e43d
00000110: 8fc9 4ebd 38bf a83d cf8d fa3c a30d abbd
00000120: 06fb 033e ce35 3d3d b43c 16bd 4bf7 a03d
00000130: 2ba0 9f3d 947e 4f3d 0d4a 0abd 8915 b23c
00000140: 8c0d c6bc 003d c8bc 166f f8bd c3b8 923d
00000150: 003a a7bb 8ac1 c0ba 9064 4abd 22ca 33bd
00000160: fb4e 2bbd 80f6 773d 4710 56bd 13e2 a83d
00000170: 2b06 583d 0b77 0f3e 3365 ebbd 894e ac3d
00000180: 9e62 c3bc 3f1a 5dbd 57aa 64bd 66e5 99bc
00000190: 1e3f a33d c5a4 c1bc d972 28bd 6c9c b0bc
000001a0: 6f5c 9dbd cbe0 fcbc 1d24 2b3e 4309 10be
000001b0: 0adb 29bc d1a5 a03d 8238 06bd a417 1c3d
000001c0: 77bb d63d 739e 9fbc 0032 4fbd 52d4 053c
000001d0: 0314 003e 93a9 60bd 1fa9 f33d fd70 58bd
000001e0: 95e9 9bbd 3d5d c73d a7ff 0b3e 4d74 81bc
000001f0: 639a b03c 6c1a 8fbd 8a06 c0bd 0ed2 14be
00000200: d689 473d a769 9a3c e647 af3c 9755 513d
00000210: c015 d23c 2244 133c 7767 473d 6ba9 533d
00000220: 0636 83bd 357a 8c3d 2721 b63c 56fe f2bd
00000230: 2a4c ff3c d11a 92bd eabd 44bd e50e 1cbd
00000240: 7d27 87bd d0a5 1b3d 4d91 1a3c 7456 1a3d
00000250: 6f56 2ebd a07d 9ebd 3780 bbbd 1467 cf3d
00000260: 7770 e4bd f440 07be 64d1 84bd cce7 15be
00000270: 54dd 9fbd ac0c 4a3c 7a3a db3d ab99 a4bd
00000280: 6735 a63d 695d 7b3c 9400 ebbc 721f 0d3e
00000290: 8e4c d83d 677f 033e 3295 c0bd 6132 9b3d
000002a0: f342 f1bd 54cb 31bd 0ae8 9c3d 2566 1bbd
000002b0: d907 d3bd 3637 a2bd bbda eb3d b6e1 87bd
000002c0: fdb4 823d 4e1b d5bd 8262 b43d 93b2 1abc
000002d0: aecf 073d f44f 8f3d 1efc debd 492e 863d
000002e0: 1f50 4e3d ae98 86bb 8a30 82bd 7990 393d
000002f0: 8818 b83c ab41 a23d 93b3 043c 9e47 223d
00000300: 3de3 f0bd a9eb babd 9263 8ab9 60b3 04be
00000310: 16ce 5ebc a8c3 aabd 2dcb 1f3d a770 c9bd
00000320: 543a a3bd dd0b 9d3d 3c8f 74bd 1cc4 a4bd
00000330: ae59 d13d 64ec f13d e0b0 be3c 9b6f 27bd
00000340: 6368 11bd 8dc1 95bd 9a1b 0bbd 7dbf 1d3d
00000350: c09b c3bc 46ac 8ebd c45c 0b3e ddd0 b9bd
00000360: eb61 6ebd 814e 093e d85c a23b ea08 b73c
00000370: 1b3e 473d 76b8 bc38 a498 483c a3c6 683d
00000380: b2cb 893c 7bd5 acbd 04e4 3c3d 02d3 90bd
00000390: a43a 133e 6226 173d 775d b33c 522a d03d
000003a0: 0d00 cabb 4148 1c3d a171 d0bd 86d5 863d
000003b0: 8761 cf3d ca71 18bd 3b6d 0dbd 8692 693c
000003c0: 5a75 36bd d9b5 53bd 4105 71bd 6c6d d1bd
000003d0: b430 4f3d 0088 90bc 4db9 e83d 9594 70bd
000003e0: 503f 9c3d 30c1 85bd 0b98 06be fb09 153d
000003f0: 04b0 d43b 3e1e a2bd 238e b0bd 77a7 8cbd

lstm.bias_ih_l1 f4 [256]
-0.06066648 -0.05534155 0.13227332 -0.10424409 -0.02265338 -0.04756028 0.008627329 -0.09811589
-0.08394953 0.07542588 -0.10844843 -3.747392e-05 0.021501385 -0.12467944 0.053796347 -0.046870068
0.013311213 -0.13026294 0.11969527 0.14968799 0.12177389 -0.055940896 0.018898824 0.097152844
-0.005269612 0.06006128 0.14452131 -0.10277632 -0.054061875 0.121114686 -0.03571278 -0.032976884
0.06788073 -0.03333154 -0.059968174 -0.103930704 -0.00039860106 -0.020412436 -0.11725337 -0.021534277
0.0034329789 -0.1069806 0.118412025 -0.10047211 0.031512108 0.013160329 -0.03625515 -0.07499388
-0.02597825 0.008450565 0.015244302 -0.010731407 0.046434022 0.04530726 -0.12043158 -0.07831875
-0.05903835 0.026454987 -0.08008949 0.13037355 0.09189295 0.11369958 0.06726881 0.0022706157
0.041653097 -0.013602278 0.0299409 -0.03515759 0.09846399 0.07186376 -0.038822718 0.09320544
-0.09508058 -0.09006579 -0.031955414 0.061258256 0.0063281446 -0.061167207 0.10394476 0.027293248
0.054813202 -0.026882295 0.021322602 0.0033407365 -0.096283905 0.07706315 0.004389508 0.06568766
-0.06960703 -0.09726345 -0.012653888 0.023287525 0.06803139 -0.059565518 0.110160075 0.12959646
-0.009964516 0.10104486 -0.05808478 0.09961221 -0.13382287 0.13133089 0.088634044 0.037451908
0.11920227 -0.053526167 0.13677788 0.053179312 0.08370718 0.115418516 -0.11302211 0.0555894
0.021883149 0.111398615 0.042737603 0.006327256 0.0848398 0.08021278 0.027016234 -0.042739317
0.07360183 -0.056738734 -0.0129721165 0.15531911 0.117330566 0.05402322 0.15793306 -0.053804956
0.070311196 -0.035073787 0.088580996 0.057149626 -0.02672655 -0.10272178 0.076966114 -0.110304296
0.003969565 -0.017166195 -0.09354976 0.01913434 -0.0696133 -0.054357737 0.10271267 0.002228107
0.07173643 -0.05453707 0.047933135 0.11409194 -0.018209873 -0.057104338 0.07481585 0.037432525
-0.10782349 -0.05656351 -0.03279843 -0.05642304 -0.10884643 0.017440608 -0.05496913 0.02767133
-0.052635238 0.106436044 -0.012624419 0.017269446 -0.093877666 -0.0038970474 0.010814988 -0.0397478
0.10801081 0.08173381 0.009211944 -0.063974135 0.06992634 -0.07553904 0.094991565 0.047917183
-0.099130146 0.03752615 0.013309602 -0.12600932 -0.09029652 -0.06767621 0.033888895 -0.07454948
0.10458657 0.07427307 0.09013829 0.033398993 0.035948608 0.0036794231 0.0010814819 -0.052154303
0.07154832 0.076028995 -0.018603522 0.064570256 0.03086108 0.09420919 -0.06452822 -0.08471109
0.08300687 0.009791357 -0.09649167 0.010132132 -0.025936618 -0.016325332 -0.039354973 -0.084059544
-0.05058617 -0.05724374 0.070732646 -0.02360806 0.069450796 -0.08964296 -0.017351637 0.027966535
0.08747894 -0.0837745 0.15317497 0.115293615 0.08577088 0.07785274 -0.0166201 0.054103866
0.1321425 -0.022693062 -0.035256904 0.0647142 -0.011838924 0.027555807 0.09866628 -0.062660344
0.080084875 0.09691005 0.042727623 -0.009651443 0.09045984 0.037791695 0.011631479 0.026237214
0.083334394 0.097707026 -0.03490018 0.03328995 0.094419174 0.07015583 -0.08119688 0.102017105
-0.109965935 -0.04942844 0.002204765 -0.02239178 0.10458443 0.037950214 0.14712036 -0.036756836
00000000: 6a7d 78bd d2ad 62bd a872 073e ed7d d5bd
00000010: 9593 b9bc 91ce 42bd a459 0d3c fcf0 c8bd
00000020: bbed abbd e278 9a3d 361a debd 512d 1db8
00000030: ac23 b03c ef57 ffbd 8f59 5c3d d4fa 3fbd
00000040: 4617 5a3c a663 05be cb22 f53d cf47 193e
00000050: 9764 f93d 4822 65bd b5d1 9a3c 12f8 c63d
00000060: b6ac acbb d102 763d 65fd 133e 647c d2bd
00000070: fc6f 5dbd fa0a f83d 9047 12bd c512 07bd
00000080: 0d05 8b3d a786 08bd 30a1 75bd 9fd9 d4bd
00000090: 54fb d0b9 fb37 a7bc 8922 f0bd a768 b0bc
000000a0: d4fb 603b a518 dbbd 0182 f23d 52c4 cdbd
000000b0: d712 013d 6c9e 573c 4880 14bd 6496 99bd
000000c0: 57d0 d4bc 3d74 0a3c 3dc3 793c c9d2 2fbc
000000d0: 9a31 3e3d 1b94 393d d5a4 f6bd 9565 a0bd
000000e0: 32d2 71bd 21b8 d83c f505 a4bd a580 053e
000000f0: 5f32 bc3d 53db e83d 3bc4 893d 9cce 143b
00000100: 709c 2a3d 17dc 5ebc 9e46 f53c 6801 10bd
00000110: 7da7 c93d 4f2d 933d 9204 1fbd 7ee2 be3d
00000120: 9bb9 c2bd 6a74 b8bd aee3 02bd f0e9 7a3d
00000130: 535c cf3b 778a 7abd fee0 d43d 1796 df3c
00000140: cf83 603d 4238 dcbc bdac ae3c 42f0 5a3b
00000150: 7f30 c5bd 49d3 9d3d ddd5 8f3b 4087 863d
00000160: 218e 8ebd 0f32 c7bd 4152 4fbc 7bc5 be3c
00000170: 0b54 8b3d f9fa 73bd 9b9b e13d efb4 043e
00000180: 3642 23bc 9cf0 ce3d 4eea 6dbd 7d01 cc3d
00000190: dd08 09be 9b7b 063e c485 b53d 2c67 193d
000001a0: 5220 f43d 413e 5bbd 800f 0c3e 8dd2 593d
000001b0: ac6e ab3d 8b60 ec3d 2378 e7bd b6b1 633d
000001c0: 4a44 b33c f524 e43d a00d 2f3d df54 cf3b
000001d0: 7dc0 ad3d 9946 a43d 2651 dd3c 6c0f 2fbd
000001e0: 8ebc 963d e066 68bd 0089 54bc f90b 1f3e
000001f0: 024b f03d 7447 5d3d 34b9 213e 9662 5cbd
00000200: 51ff 8f3d 88a9 0fbd f469 b53d ba15 6a3d
00000210: a3f1 dabc cc5f d2bd 69a0 9d3d 38e7 e1bd
00000220: 2013 823b 1fa0 8cbc 0497 bfbd 9fbf 9c3c
00000230: 6b91 8ebd 38a6 5ebd 055b d23d 6f05 123b
00000240: 8dea 923d 4362 5fbd 8955 443d 09a9 e93d
00000250: df2c 95bc 3de6 69bd 0d39 993d d952 193d
00000260: 90d2 dcbd 24af 67bd a657 06bd d81b 67bd
00000270: e1ea debd 9bdf 8e3c 4f27 61bd fcae e23c
00000280: 0c98 57bd 24fb d93d a7d6 4ebc a778 8d3c
00000290: ef42 c0bd 9b65 7fbb 5931 313c 97ce 22bd
000002a0: c634 dd3d 0e64 a73d b2ed 163c df04 83bd
000002b0: 8a35 8f3d 36b4 9abd f08a c23d cf44 443d
000002c0: bf04 cbbd 05b5 193d 8410 5a3c 9608 01be
000002d0: 62ed b8bd d399 8abd 15cf 0a3d 66ad 98bd
000002e0: 7c31 d63d 7b1c 983d 6c9a b83d 62cd 083d
000002f0: d93e 133d 7a22 713b 83c0 8d3a c09f 55bd
00000300: ed87 923d 17b5 9b3d 6a66 98bc 693d 843d
00000310: 60d0 fc3c bff0 c03d 5f27 84bd 027d adbd
00000320: 81ff a93d ee6b 203c 6d9d c5bd 3e01 263c
00000330: 0879 d4bc b4bc 85bc ae32 21bd 6927 acbd
00000340: 7233 4fbd 6978 6abd 47dc 903d b165 c1bc
00000350: 383c 8e3d ba96 b7bd 0525 8ebc 131a e53c
00000360: 2928 b33d f791 abbd e6d9 1c3e 0f1f ec3d
00000370: a5a8 af3d 4271 9f3d e026 88bc 049c 5d3d
00000380: 5d50 073e cde6 b9bc 8b69 10bd e188 843d
00000390: 0cf8 41bc b7bc e13c 8c11 ca3d 1154 80bd
000003a0: 8a03 a43d c778 c63d 2903 2f3d 1621 1ebc
000003b0: 0243 b93d 77cb 1a3d f591 3e3c 6def d63c
000003c0: 39ab aa3d 9f1a c83d 7ef3 0ebd 0b5b 083d
000003d0: d75e c13d dcad 8f3d 8d4a a6bd 58ee d03d
000003e0: d235 e1bd 7a75 4abd d27d 103b f76e b7bc
000003f0: 5d30 d63d af71 1b3d b8a6 163e 568e 16bd
