EXPERIMENTS/optimization-MQTT/SERVER-eve_thing/models_artifacts3/lstm_v2_best.pth (torch, 213145 bytes, 12 tensors)

lstm.weight_ih_l0 f4 [256, 6]
00000000: ff70 ca3d c6e8 103e 2e97 65bd de11 9b3d
00000010: f73e eabb 3d42 99bc c394 97bd 3db0 c33d
00000020: c3e0 173e 2030 c0bd 0a67 523d ebab a43d
00000030: 110d f33d c932 493b 0c93 103d 42a8 6dbc
00000040: 2559 053e 914f 7b3d bae2 98bd c259 c8bb
00000050: a6c3 9ebc 42f7 42bd f461 90bc 5dde 3d3d
00000060: 493f 79bd dcc8 85bc aff6 32bd 6a3b cbbd
00000070: b773 6b3d a277 0dbe ed04 523d 2f58 78bd
00000080: 7d27 463d c672 963d 0b1a d3bd d055 f93d
00000090: d7bf cb3c 3c59 cd3d 70e8 2d3d f8d3 dfbc
000000a0: 777a b63d 4eb1 a9bd 5e04 d73d 7ed8 e53d
000000b0: a94d 453d 7ecb b3bd 569a e33c 43d7 103d
000000c0: cc1f 833b 3683 9dbd b90d ffbd 0949 17bd
000000d0: 5562 1abe 01d5 823d 1e86 533c 5293 c03a
000000e0: aa78 f23c 43d6 5b3c 1017 c03d d291 b6bd
000000f0: 3c29 32bb ef09 8fbd e111 1cbb 1557 76bd
00000100: 8762 ba3d 0664 aa3c 4189 d73d 19d6 e6bd
00000110: 6b0f 74bd 9393 19bd 1c8d 213e ba61 233b
00000120: 7d0b 113e cfc3 85bd 0958 15be e56e 02be
00000130: 150d 59bd 88a8 933d 4a00 c83c 7eec 923d
00000140: d4c4 77bd dc82 a8bd a91f 453c 0697 a0bb
00000150: a09c fb3d 6aa2 a9bb 1eb0 da3d 8909 f3bd
00000160: 6460 8cbd 8c20 2f3c d78b 1abd 0615 9dbd
00000170: 9fdf fe3c 8a92 123e 61fd 1abe 9e44 20bb
00000180: df9b b23d 176e c53b f828 c5bd e1f3 1bbe
00000190: f0bc e5bd 29e6 7e3d 7b81 63bd f387 81bd
000001a0: 3954 f63c de40 73bd 0184 27be bbb0 e5bd
000001b0: b50f 6bbd ba79 ebbd e166 2f3e 39a9 bbbc
000001c0: 6406 ba3d 871f a2bd 68e1 b8bc 5fb5 a9bc
000001d0: 8643 9d3d ec55 05be 9269 743b a33b b6bd
000001e0: b8a4 3e3d e405 42bd 4402 f73c 560a f5bd
000001f0: 28f8 6ebd c01a 01be 4ecc 523c 8df1 9bbd
00000200: ef00 823d 979b 85bd 6487 243e f1de 8fbc
00000210: 7b94 ddbd 0316 9c3d c936 e5bc 7ca3 1fbd
00000220: 03c7 d6bd a226 cdbd 81f3 44bc ee7d 29bd
00000230: 2512 863c 72b6 b2bd f842 2f3d ef39 44bd
00000240: aa06 d5bc b73c 11bc fcdd 953d 4e40 073e
00000250: 0a71 d23d d55d 9dbd 915f 543c 8cc2 5bbd
00000260: 8f5e 09bd df17 9bbd 59d3 bb3d 87bd b4bd
00000270: 734c d63d ea44 a13d 813a 6f3d de82 3bbd
00000280: 6d24 ba3d fc71 b53b 4c34 503d 5766 abbd
00000290: 00cc 043d f161 23bd 0923 2abd 4e2c 9c3d
000002a0: 93fc 05bd e9ce 06bd c67c dabd 749e 003c
000002b0: 4466 4f3c 8b4f 9abd cc68 4ebc 8669 abbd
000002c0: c6d1 1ebd 3a1c 3bba d478 1d3e 68ae bebd
000002d0: d5df 7abb 5f14 233d 51a2 253b e488 f3bc
000002e0: 1f15 dc3d 2353 ca3d 1919 d63d 1ea4 0e3c
000002f0: 631c 6bbd 20a3 1fbd 7c9d 043d 6c47 abbd
00000300: e759 d53c 00ca 013e 10fe 7cbd 04f8 bb3c
00000310: 0a7f 5dbd adef 3c3d e3cd a13d 4be2 aa3d
00000320: 593c d8bd 757c c6bd 8a5f 263e babf 9f3b
00000330: 9d4a d83c b24f d9bd 90ff 5cbd b6c6 99bd
00000340: 3d7b 52bc ca73 2d3d ec6d ed3c 90c5 993c
00000350: 79b1 0abe 1e92 ddbc 149d 8bbd aeea 093e
00000360: b918 2d3d 8d2f 3c3b 4961 8c3d afd8 90bd
00000370: 6cef cfbd 6e85 a03d 846a 17bc 361e 6fbd
00000380: 44a6 fcbd 6c9e 8d3d cfc7 1a3e 2913 98bb
00000390: fde3 14be eac5 d4bd 7db7 e9bd 8dbd 083e
000003a0: fcd1 cd3a 9367 213e 2795 db3d 4419 393d
000003b0: 926f 143d 196d 92bd 07ba 92bd 495b a7bd
000003c0: 9ed5 d43d 1bcb c5bd 54ed 8a3c 3b3f 9dbd
000003d0: 2176 f73c 1f55 dfbd 1bdc 0dbe 1bdd 61bb
000003e0: a211 3b3c 70c5 d83d ddf4 cbbd 3bcd 01be
000003f0: 7697 b63c 6070 18bd 4e41 0c3b 4e59 c3bd
0.098848335 0.14151296 -0.05605238 0.07571767 -0.0071486193 -0.018708343 -0.07401421 0.09555099
0.14831834 -0.09384179 0.051367797 0.08040603 0.118677266 0.0030700436 0.035296485 -0.014505448
0.13022287 0.061355177 -0.0746512 -0.0061142156 -0.019380402 -0.047599085 -0.017624833 0.04635464
-0.06085137 -0.016331129 -0.043692287 -0.09923442 0.0574834 -0.13815168 0.05127423 -0.060630973
0.048377503 0.0734611 -0.10307702 0.121745706 0.02487175 0.10026786 0.042457998 -0.027322754
0.08910077 -0.08285771 0.1049888 0.11222933 0.048169766 -0.087790474 0.027783554 0.03536154
0.004001593 -0.07691042 -0.12453789 -0.036934886 -0.15076573 0.063882835 0.012910394 0.0014692342
0.029598553 0.013417783 0.09379399 -0.08914532 -0.0027185222 -0.069843166 -0.0023814368 -0.06014164
0.09100824 0.020799648 0.10524226 -0.11271305 -0.059585016 -0.037494253 0.15776485 0.0024930076
0.14164539 -0.06531488 -0.14584364 -0.12737615 -0.05299099 0.07209879 0.0244142 0.071740136
-0.060490444 -0.082280844 0.012031474 -0.004900816 0.12285733 -0.005176832 0.10678123 -0.11867053
-0.068543226 0.010688912 -0.037731018 -0.076700255 0.03111249 0.14313713 -0.15135719 -0.0024454962
0.08721136 0.0060250866 -0.09626955 -0.15229751 -0.112176776 0.062231217 -0.055543404 -0.063247584
0.030069457 -0.059388034 -0.16358949 -0.11215349 -0.057388026 -0.11497827 0.17129089 -0.02290784
0.0908325 -0.079161696 -0.02256842 -0.020716367 0.07678895 -0.13021058 0.003729437 -0.088980936
0.046543807 -0.0473689 0.030152448 -0.11964862 -0.05834213 -0.1260786 0.012866093 -0.076144315
0.06347834 -0.06523817 0.16067272 -0.017562361 -0.10819336 0.07621386 -0.027980225 -0.03897427
-0.10487177 -0.10017134 -0.0120209465 -0.04137986 0.016366074 -0.08726205 0.042788476 -0.047906812
-0.026004154 -0.008864573 0.07317731 0.13208124 0.10275467 -0.07683913 0.012962238 -0.05365233
-0.033537444 -0.075729124 0.09171171 -0.08825212 0.104638 0.078744724 0.058405403 -0.0457791
0.09088979 0.0055372696 0.050831124 -0.08369129 0.032421112 -0.039888326 -0.04153732 0.07625638
-0.032711577 -0.03291217 -0.1066833 0.007850278 0.012658659 -0.07534703 -0.012598228 -0.083697364
-0.038774274 -0.000713769 0.15378124 -0.09310609 -0.0038280387 0.03981435 0.002527375 -0.02972836
0.10746216 0.09879138 0.10454006 0.008706121 -0.05740012 -0.038973927 0.03237675 -0.08363232
0.026043845 0.12674713 -0.06176573 0.022945412 -0.054076232 0.04612701 0.07900598 0.08343943
-0.105583854 -0.09691707 0.16247383 0.0048751505 0.026402766 -0.10610904 -0.05395466 -0.07508604
-0.012846765 0.042346753 0.028983079 0.018770963 -0.13544263 -0.027047213 -0.0681707 0.1346843
0.042259905 0.0028714866 0.06854493 -0.07072579 -0.10153088 0.0783795 -0.009241704 -0.05837842
-0.123364 0.06914982 0.15115283 -0.004640956 -0.14540096 -0.103893116 -0.11411951 0.13353558
0.0015702839 0.15762167 0.10721808 0.04519011 0.036239214 -0.07149715 -0.07164388 -0.08171708
0.10392307 -0.0965788 0.01695887 -0.07678076 0.030207695 -0.109049074 -0.13853495 -0.0034464065
0.011417778 0.10584533 -0.09958813 -0.12675945 0.02228902 -0.037216544 0.002140123 -0.09538518

lstm.weight_hh_l0 f4 [256, 64]
00000000: 446e 803d f461 a5bd 1daf d8bc 5400 b7bd
00000010: d08b aebd 5c87 1f3e 396c bf3b 3d55 153e
00000020: ebf7 b43d b705 493d 712b bd3d 7f77 853d
00000030: 3dea 16be 87af e9bd a8c5 073c 5ea6 633d
00000040: cc34 c03d 3aec a93d dc8e c23d 68f0 353d
00000050: 8746 bfbb c187 91bd 2ab4 f5bd f1fb e3bd
00000060: e031 a93d aac2 1a3d 2a03 843d da59 d23a
00000070: b51b e43c a218 9b3b fe20 13bc 6553 9cbb
00000080: a847 56bd 797d 3dbd 11a6 cebc 3ed5 223d
00000090: dc17 183c af88 0abd d09f 983d f4d8 e13c
000000a0: 8fc1 cbbc 6e00 ce3d 2d91 473d 811e 8bbd
000000b0: d721 adbd 8e73 d0bb 4ecc 15be 466a 9a3d
000000c0: 08f7 1d3d 6372 833d 6ec9 dbbc cd10 fbbc
000000d0: 0d4d 4dbc f493 0f3e b7d6 dfbd 3ee4 e13c
000000e0: 5509 9b3d 0f3d 08be 0dbc a83d 1f1e 6cbd
000000f0: f142 3ebc 4e88 dcbd 3117 cfbd 741d 703d
00000100: 75ba 96bd 015c d53c 6ee9 c0bd 833c 3dbd
00000110: 148c f5bc 16a2 023e 2483 66bd a382 6a3d
00000120: c828 0a3c f7ec ce3d 63cb b33c d3d8 9e3d
00000130: 513d d5bd ebe4 03be aa43 103e fe3e ebbd
00000140: 60ef 19b8 32c9 0b3d 9b1c 1a3e a44d 433b
00000150: 5ded 56bd 0e77 dbbc 342b 233d bfee 063d
00000160: 349b 183e a58b 83bd 85e3 853c fdbf d0bd
00000170: ddb5 b63d 13f7 743d 545d 953d a2b9 babd
00000180: 4b4b edbc e404 693d 1d71 acbd dff3 f6bd
00000190: db3a ccbd 84cc 123d c635 dd3d 7ea9 8a3d
000001a0: a3f0 d2ba 5fb3 4c3d dff9 5bbd 9986 c53c
000001b0: 63dd 85bd 5c0f 57bd 8576 8a3d 745f e9bd
000001c0: 64ad 0d3d 42ca d4bd 06c5 c9bc 82ab 5cbd
000001d0: ea8a 353d 193d 8dbd b80e f33d 5880 fbbd
000001e0: e38e e53d a5f6 dabd 7e1f a73d 695e d8bb
000001f0: c072 0abd deb0 14bd afcc 813d 2a39 1b3c
00000200: 7c75 10be 1326 293d c363 c8bd 37b4 f13d
00000210: b637 8ebc 48ed 48bd 738b 57bd fca8 a33d
00000220: 806f 73bd b6df ae3d f32d 743d 745a 743d
00000230: 925b 063d f5ad b0bd 5480 003e 4a96 73bd
00000240: 623e 5ebd cac2 3fbd d9b9 103d 0f5f c13d
00000250: 339e 7a3c e0ea 993c 5420 10be 9fcd 253c
00000260: d6f0 16be 08c0 9c3d 34cf 87bd 57c4 67bd
00000270: 5118 363d d698 1c3e 4792 80bd f098 9bbd
00000280: 3359 fd3c 5ccb 233c f3c4 04bd 5890 52bd
00000290: 4da3 2bbd 401c de3b 5207 d13d ac4a 91bd
000002a0: 6219 6c3d 7b82 a73d 34fb bf3d 1016 83bd
000002b0: 6bbd 2f3d eded 073e cf2b d53d ee2e 0f3e
000002c0: a4e5 74bc 731d 1b3d 501c 9f3d 6235 dfbd
000002d0: 2eb0 3a3d 414a 7bbd d125 673d 697e 2dbd
000002e0: 1cdb 44bc e5b0 f03d 0c9d eebd 1ed7 19be
000002f0: f1f3 68bd bb13 c63d 06d6 803d 289d 16bd
00000300: 8b8e 973d 5538 c3bd 0b0d e5bc b91f 8d3d
00000310: ae03 9a3c 9ea6 00bc eae0 db3c 8f09 743d
00000320: 8d9e bb3c 3bce 62bb ca1a 41bd 74a6 003e
00000330: 3486 91bc face 883d edf5 8ebc 7b90 8e3d
00000340: 061e 0f3e cb47 e43d 76bf 9cb9 e9d4 193e
00000350: 8869 99bb f78c 303d 2a64 ba3d 7f6c e93d
00000360: 5d12 7bbd b26f ec3d 5809 783c db02 2bbc
00000370: 85b7 143e ac48 b1bc 8f12 ae3d fdca a53d
00000380: 6e55 00be a502 fdbd edd1 1ebe 3e60 46bd
00000390: 733a 8cbd 4f88 0ebd 5bb5 743d 57a2 f43d
000003a0: 33f0 bf3d 8e6f 963d 447b aa3d d96a e4bd
000003b0: 3fa4 8cbd 74e5 a0bc 756b 033e 2b84 45bb
000003c0: f72d b0bc 6beb 02be 9997 9abd c681 c5bd
000003d0: e378 6e3d a5c6 41bd 0513 10be a8b1 02bd
000003e0: 7bc1 b83c 0ff6 e7bc 55d9 c03d 0e6a 0a3d
000003f0: 84ce b6bd 2656 bdbd 7582 533c 600a fabd
0.062710315 -0.08075324 -0.026450688 -0.089356095 -0.08522761 0.15578979 0.0058417586 0.14583297
0.08836349 0.049077716 0.092368014 0.06516933 -0.14737792 -0.11410432 0.008286871 0.055578582
0.0938507 0.0829701 0.094999045 0.044418722 -0.005837265 -0.07105971 -0.11997254 -0.111320384
0.08261466 0.037783302 0.06445916 0.0016048506 0.027845243 0.004733161 -0.008980034 -0.0047706836
-0.05231443 -0.04626224 -0.025225671 0.039754145 0.009283032 -0.033821758 0.07452357 0.027569272
-0.02487257 0.10058676 0.048722435 -0.067929275 -0.0845372 -0.0063614314 -0.14628717 0.07539801
0.038565665 0.06418302 -0.026829448 -0.03064766 -0.012530577 0.14021283 -0.109296255 0.027574655
0.07570139 -0.13304542 0.08238993 -0.057645913 -0.01161264 -0.107681856 -0.10111845 0.05862184
-0.073597826 0.026044847 -0.09419523 -0.046200287 -0.029974021 0.12757143 -0.05627741 0.05725349
0.008432575 0.10103791 0.021947568 0.077562 -0.10412086 -0.12880294 0.14088312 -0.11486624
-3.6700978e-05 0.03412742 0.15049975 0.0029800916 -0.05247246 -0.026790168 0.039836124 0.03294253
0.14902955 -0.064231195 0.016343841 -0.10192869 0.089214064 0.05980594 0.072931916 -0.09117438
-0.028966567 0.05688943 -0.08420012 -0.120582335 -0.09972163 0.035839573 0.10801272 0.06770609
-0.0016093444 0.04997575 -0.053705093 0.024112033 -0.06536367 -0.052504882 0.06760887 -0.11395159
0.034589186 -0.1039014 -0.02463008 -0.0538745 0.044321932 -0.06896419 0.11868042 -0.12280339
0.11208894 -0.10691575 0.081603035 -0.0066030514 -0.03380084 -0.036301486 0.063378684 0.009474078
-0.14107317 0.041296076 -0.09784653 0.118019514 -0.01736055 -0.049054414 -0.052623224 0.079912156
-0.059432507 0.08538763 0.059614133 0.059656575 0.032802172 -0.0862693 0.12548953 -0.0594695
-0.05425871 -0.046816625 0.035333488 0.09441959 0.015296507 0.018788755 -0.14074832 0.010119825
-0.14740309 0.076538146 -0.06631318 -0.05658373 0.044456784 0.15292677 -0.062779 -0.0759753
0.030926323 0.009997215 -0.032414388 -0.05140719 -0.041903783 0.00677827 0.10206474 -0.07094321
0.057641394 0.08179184 0.09374085 -0.064006925 0.042905252 0.13274355 0.104087465 0.13982746
-0.014947329 0.03786988 0.07769072 -0.10898854 0.045578174 -0.06135011 0.05643255 -0.042356882
-0.01201513 0.1175249 -0.11651048 -0.15023467 -0.056873266 0.09671732 0.06290822 -0.03677097
0.07400235 -0.09532229 -0.027960321 0.06890816 0.018800583 -0.007852225 0.026840646 0.05957943
0.022902751 -0.0034607786 -0.04714469 0.12563497 -0.017764188 0.06680103 -0.01745125 0.06961151
0.13976297 0.11146506 -0.00029897288 0.15022625 -0.0046817698 0.043103185 0.09101136 0.11397647
-0.06129681 0.11544742 0.0151389465 -0.0104376925 0.14523132 -0.021641098 0.084996335 0.080953576
-0.12532589 -0.1235402 -0.15509768 -0.048431627 -0.06847086 -0.034797963 0.059743267 0.11945026
0.09371986 0.07345496 0.08324292 -0.11153192 -0.06867265 -0.019640662 0.1283396 -0.0030138593
-0.021506293 -0.12785117 -0.07548446 -0.09643893 0.058220755 -0.047308583 -0.14069755 -0.031907707
0.022553196 -0.028315572 0.09416453 0.033792548 -0.089261085 -0.09244947 0.012909521 -0.1220901

lstm.bias_ih_l0 f4 [256]
00000000: c7fb c23d c640 63bd 70b5 f23d 7107 eebb
00000010: 19f3 d2bb 1290 663d f715 003e a485 58bd
00000020: 3910 603d e59d a03c 4c76 dcbc 3764 c03d
00000030: 1a95 4b3d d5b3 92bd 2154 aa3b 0634 f63d
00000040: 416c a5bc 5147 063e 08ab 80bd eed0 933d
00000050: 51f7 b63d e16d a13d 5f79 753d 0f15 773d
00000060: e449 c43c 32c3 d33d d8f7 4dbc 91f7 d63d
00000070: b3ec 1c3e 41d1 9abd d27d e43d 7ec9 5e3d
00000080: b30d 4bbd a8d7 fbbc ebd9 e3bc 2606 063e
00000090: a8f1 d83d bd5e ed3b c8cf 29bd 16d3 91bd
000000a0: f3fb 25bd 24ed 053d 01f4 a9bd 9a52 c6bd
000000b0: 181d 97bd 5e70 553d 42e9 a33d f6f0 ea3c
000000c0: 383e 153e 81ad 073d 158c c6bc 89b3 9c3d
000000d0: df3a e6bc c361 0c3e f99e 30bc 40e7 ebbc
000000e0: 1f1d cf3b e14b f7bc 348a 9c3c c671 62bc
000000f0: c994 a83c 45f9 263c 99aa b1bd e95f a5bd
00000100: eec6 54bd a26a a8bd a5d7 f7bd b9e6 053e
00000110: 8952 d93d b6dd bc3d 3866 b63d 0fa7 583d
00000120: c3ea b23a e937 bd3c fa52 19bd e682 b83d
00000130: a173 9d3d 9a0f 90bd b517 183d 2707 62bd
00000140: 592e 0c3e 2e40 123d 950f 233d 575e 30bd
00000150: efd1 323d 5375 5a3d 6385 1f3d 1f97 48bd
00000160: 64c5 82bb 6df0 aebd 6777 74bd a576 96bd
00000170: 2e58 91bd ecfa 303e 22f7 d6bd 1339 ecbb
00000180: 7876 013d 7160 c0bb 31ce 46bd ab9e 8c3d
00000190: 0a49 fe3a db6c f93c 505c 183e 9dbf 06bd
000001a0: 2dbd cd3c 798f f23d 5fcc bcbb d9f9 82bd
000001b0: d0a4 d03d cd25 b2bd aebe b2bd 5035 98bd
000001c0: 22cb 803d 09ee db3d 2b20 8ebd 39e3 15bd
000001d0: 7e86 173e f35b 0b3e 02dc bb3d e08c 81bd
000001e0: dd2f cf3d 10c8 f13c b1a9 7fbd 56e4 fc3d
000001f0: d132 91bd 78e7 433d 58e2 91bd da1e 113e
00000200: 5cd9 41ba 98a4 3fbd f4d0 803d 1e54 f13d
00000210: b882 1a3a 7b8a 953d 342f 00bd c8aa 71bd
00000220: ee9f aabd 58f8 edbd bdac d13d 36a8 133d
00000230: 6174 a8bd dde4 ffbd f4ac ae3d 6b50 773c
00000240: 92cd c3bd 78a0 f43b cdb5 1cbd 2704 793c
00000250: 4f89 40bd 15ad 28bd 7323 8abd eb1c a8bd
00000260: 49dc ee3c 5fb1 513d 54e5 fc3c 625d a03d
00000270: be7b 38bd 5b96 01bd 7ae2 82bd 5b34 d5bd
00000280: 4e9c 91bd 9823 8abc b791 fe3d dfd4 f8bd
00000290: 36ff cc3d 3bcb 693d df08 8b3d 15b9 843d
000002a0: e190 833d ff35 d93d cc42 3f3d cad8 bcbc
000002b0: 0ec4 0e3d 373d f1bb 8b61 87bd 3ddb 4f3d
000002c0: f1e7 1e3e d1fa b63d 674e 8cbd e6ff a9bb
000002d0: 0f85 8e3d 7e85 723d 2812 d0bd 241b 47bc
000002e0: 552f 5ebc 6c03 e53d dab2 cb3c c529 37bd
000002f0: 9636 3bbd 3d5f cd3d 75d5 0fbd 9ce2 5c3d
00000300: 67a8 143e 7b23 a3bd ab9b 28bc 0af3 d9bd
00000310: d969 afbb 2069 ab3d 513d b43b d4e6 913d
00000320: 00ea 2abd d6af b83d 1413 48bd fe2b f03d
00000330: fa02 4c3c 4b95 083e 604c cd3c 8f06 b03d
00000340: fa52 64bd 32c8 263d 45bb 033e cb2d 8ebd
00000350: 266a ec3d 8274 983d c15e 3fbd d2a0 4dbd
00000360: 6fe6 013e 4a63 20bd 9060 9d3d b058 3f3c
00000370: 1296 113e 03b6 44bd 6b81 c1bb a409 a13d
00000380: 86ba 17bd 8b92 303c 0291 0bbd 6276 083e
00000390: 1278 af3d e5d2 95bd 94c1 993d 57f0 eb3d
000003a0: e93b b23d 62b9 1a3e dd7d 01bb 1da7 463d
000003b0: cc53 043e c9ee 093e eeeb 70bb 0197 933c
000003c0: 16ac 523d a7ce f33d 5123 f9bc 9c64 e33a
000003d0: 5bfe 9c3d 0c54 533c 7fac 7fbc fc53 0b3e
000003e0: 791f 82bc 9300 ea3d a024 6f3b 2e45 e1bd
000003f0: cec7 a5bd 3162 693d cfe4 b73d 4820 913c
0.09520679 -0.055481695 0.11851013 -0.0072640707 -0.006437671 0.05628974 0.12508379 -0.052861825
0.05470297 0.01960654 -0.026911877 0.093941145 0.04970274 -0.071632065 0.005198017 0.120216414
-0.020193221 0.13113143 -0.062826216 0.072175846 0.089338906 0.07882286 0.0599302 0.060322817
0.023961015 0.10339965 -0.012571298 0.10496438 0.15324669 -0.07559443 0.11156811 0.054391377
-0.04957361 -0.030742481 -0.027813872 0.13088283 0.10592967 0.0072439597 -0.04145792 -0.071203396
-0.04052348 0.032696858 -0.08298493 -0.09683724 -0.07378596 0.052109115 0.08003475 0.028679352
0.14574516 0.03312445 -0.024236718 0.07651431 -0.028104244 0.13709168 -0.01078009 -0.028796792
0.00632061 -0.03018755 0.01910887 -0.013821071 0.020578759 0.010191266 -0.08675117 -0.08074934
-0.051947527 -0.082234636 -0.12101678 0.13076295 0.106114455 0.092219755 0.089062154 0.052893694
0.0013650287 0.02309795 -0.03743265 0.09009342 0.0768807 -0.07034226 0.037131984 -0.055182602
0.13689555 0.035705738 0.039809782 -0.04305872 0.04365724 0.053334545 0.038945567 -0.048972245
-0.003990816 -0.08541951 -0.059684183 -0.073468484 -0.07096897 0.17283219 -0.104963556 -0.007208952
0.03160712 -0.0058708717 -0.048536483 0.06866201 0.001940043 0.030447414 0.14878964 -0.03289758
0.02511462 0.118437715 -0.0057616676 -0.06395311 0.101876855 -0.08698616 -0.087277755 -0.074320436
0.062887445 0.10738761 -0.06939729 -0.03659365 0.14797398 0.13609295 0.091728225 -0.06325698
0.10116551 0.029514343 -0.06241769 0.12348239 -0.070897706 0.047828168 -0.0712325 0.14171925
-0.0007394755 -0.04678783 0.06289855 0.11783622 0.00058941124 0.07301804 -0.031295016 -0.05900076
-0.083312854 -0.116196334 0.10238025 0.03604909 -0.082253225 -0.12494824 0.08529082 0.015094857
-0.09560694 0.0074654184 -0.038259316 0.015198744 -0.047005948 -0.04118069 -0.06745043 -0.08208641
0.029157775 0.051194545 0.03087107 0.07830311 -0.045039885 -0.03163753 -0.06390853 -0.10410377
-0.07109891 -0.016862676 0.12430137 -0.12149977 0.10009615 0.05707858 0.067888014 0.06480614
0.06424118 0.10606002 0.04669456 -0.023052592 0.03485494 -0.0073620337 -0.06610402 0.05074619
0.15518166 0.08934558 -0.068508916 -0.005187976 0.06958973 0.05920934 -0.10159713 -0.012152467
-0.0135610895 0.11182293 0.024865557 -0.04471757 -0.045706354 0.10027931 -0.035115678 0.05392705
0.14517365 -0.07965752 -0.01029102 -0.10642059 -0.005353194 0.083696604 0.0055004735 0.07124105
-0.041727066 0.09017913 -0.04884632 0.11727141 0.012451882 0.13338201 0.025060833 0.08595001
-0.055743195 0.040718265 0.12864406 -0.06942328 0.11543684 0.07444097 -0.046721224 -0.0502022
0.1268556 -0.03915719 0.076844335 0.01167886 0.14217404 -0.048025142 -0.0059053204 0.07863167
-0.037043117 0.010777126 -0.034073837 0.1332641 0.085678235 -0.073156156 0.07507625 0.115204506
0.08702833 0.1510978 -0.0019758858 0.048499215 0.12922591 0.13469996 -0.0036761719 0.01801634
0.051433645 0.1190465 -0.030412348 0.001734871 0.07665702 0.012898456 -0.015605091 0.13606256
-0.015884148 0.11425891 0.0036490336 -0.10999523 -0.0809475 0.05697841 0.08979189 0.017715588

lstm.bias_hh_l0 f4 [256]
00000000: 8f70 f03d cc52 563d c0d7 463d e1f0 0c3e
00000010: 3bbc f43d 1526 0b3e e1d0 98bd 1518 a8bd
00000020: a841 123e f02e 193e a7a6 973d 25e6 af3d
00000030: 013e 593c c5fe 983d f0b1 54bd 1c4a 133d
00000040: 8eca 1f3e 3454 70bd e8e7 84bd 0ab5 a43c
00000050: 1dbf 9d3d 796d a6bd 7e92 b83d 5b9b 423d
00000060: e8a0 853d 52d1 ba3d 0371 a03d 9bc6 eabb
00000070: f499 aebd e41e 103e b73e fabc d403 3dbd
00000080: edb2 9e3d c067 fb3d dcdd ec3b 3fce 69bd
00000090: 44d8 abbd b65d c23d 6589 9d3d 1c06 ac3d
000000a0: ddb7 163e 1e5c 05bd 26cf 833d 7710 0e3e
000000b0: ee9a 533a 0584 ebbc 349c 7dbd 7d7e cabb
000000c0: 12b3 aebc f969 a8bd 74a2 c1bd aab8 a03d
000000d0: 66b9 473c 5a6f a33d 263d d53d df7f 99bd
000000e0: a520 76bc 3a8a 1a3e 8edc 253c f3f1 ba3d
000000f0: c32c d1bd 2e5e 103e b299 593d 12a4 52bd
00000100: 95ce 8a3d 50ee e83d 695f 913d e923 0a3d
00000110: cb22 80bc 6cef 6abb 0641 a8bd af12 0d3e
00000120: 8134 883d 6e92 863d 0b9c 6ebd 54dc 82bd
00000130: 5fe6 f53c de21 cb3d e05e e53d 7fdd eb3c
00000140: 5963 c33d 6088 f238 42a5 973b 7081 1f3e
00000150: 40a1 603d 28fc 233e 3915 edbd 9998 463d
00000160: 3169 c43b 63b6 c93d 931e a63d 452a 823c
00000170: 4c8d dc3d 6eeb c5bc 114a 9fbc 3532 b63d
00000180: 12ec 3dbd de9e 983d 7794 db3c 3508 c0bd
00000190: da52 2fbd 06b7 41bd e151 9bbd 419c 04bd
000001a0: 503b 8f3d 67c4 ae3d 6d51 c13d f1a3 523d
000001b0: c058 98bd 15e6 c6bd 8152 143e 801a 463c
000001c0: 6c9f 113e 3a95 e3bd cdff 22bd daed b63c
000001d0: 6dd0 0d3e 6018 83bd 6101 b5bc 5510 56bd
000001e0: 71b8 c43d c1f9 403d b355 62bc 6c10 df3d
000001f0: 9d6c a0bd 4694 773c 51ea 76bd 693a 003c
00000200: 5af6 5abb 6687 9ebc 456b ee3d 1e99 d9bd
00000210: 5326 2cbd 7a8e aebc a08c 1ebd 183f ff3d
00000220: aa26 473d 266b c93d cd38 ab3d 5ff0 cfba
00000230: 9df0 b43d 2f0d debc 0af3 c53d 7700 e03c
00000240: 2f3c 223d 6d51 923d a9eb 24bd a8a1 d83d
00000250: 5831 da3d 0e6e 53bc ed83 ffbc 92c8 10be
00000260: ed48 be3d 79f2 d7bd 94ce e3bd 8ac0 cf3d
00000270: a5da b13c b274 f63d b82d bfbd 4db8 88bd
00000280: 2d66 e3bc b702 b13d efd9 b4bd 41e6 dbbd
00000290: aba7 f7bc ad54 93bd 32d5 013e cda3 7e3d
000002a0: 3fbc b2bd 3007 65bd b3a4 89bb 7d2a 9abd
000002b0: 5f74 dbbd ac68 e93d 40b0 b5bd 2d05 9e3d
000002c0: 5053 bdbb 4586 cbbd 46ec 91bd 5a7d 52bd
000002d0: f562 81bd 8594 b1bd 7ff2 cb3a 3486 c2bd
000002e0: b6a5 d23d 379a 02be 9a2e febc 9fd8 bf3d
000002f0: 4cff b4bd b2c2 f7bc b7e9 ccbd 2b1d b8bd
00000300: f1a9 c23d d882 803d d681 463c b852 d73d
00000310: 2fc7 f33c 1f1b 88bd 55f4 edbd 8765 e03c
00000320: cbb2 fbbc 6283 1a3e 15ca 25bc 2834 133e
00000330: f6ac ca3c 713b dbbc d9da debd b348 263e
00000340: 329c 8dbd 5eed e23d 5698 46bc 65c1 87bd
00000350: a4f9 a3bc a3f9 b43d bba4 d03d 51f3 95bd
00000360: cca8 30bd c241 293d e6ed 9a3d 08bf abbd
00000370: 65a8 9e3d e722 a83c 09a4 c7bd 025b c03d
00000380: ce7f a4bd 33d0 1b3d 3e1f 0abd b6af 3fbd
00000390: 77a5 2c3c 25e8 8cbd 736f 1a3e 51dc abbd
000003a0: 8f45 cf3d 2287 2b3d 37db 8c3c 2f0b dd3c
000003b0: ff7e 3dbd 3015 50bb ade8 fb3d ae9e 8abd
000003c0: 86b5 d33d 5fa6 bcbd f4e3 18bd a135 d43d
000003d0: 01f6 9c3d 324b a6bd 7f8e 35bd e05c e23d
000003e0: 2193 b33c db47 1d3e 1f5f bbbd 873e 3e3d
000003f0: 28fd f1bd c19b 9d3d af4c 2cbd 9671 b43c
0.11740219 0.052325055 0.0485456 0.13763763 0.119499646 0.13588746 -0.074617155 -0.08207718
0.14282858 0.14959311 0.07404833 0.085888185 0.013259412 0.074704684 -0.051927507 0.035959348
0.15604612 -0.058674052 -0.06489545 0.020105857 0.077024676 -0.08126349 0.09012316 0.04751144
0.06524831 0.09121956 0.07834055 -0.007164789 -0.08525458 0.14074284 -0.030547483 -0.04614623
0.07748971 0.12275648 0.007228596 -0.057081457 -0.08390859 0.0949053 0.076922216 0.08399603
0.14718576 -0.032558553 0.06435995 0.13873468 0.00080720976 -0.028749475 -0.061916545 -0.0061796294
-0.021325622 -0.08223338 -0.094548136 0.07847722 0.0121901985 0.07980223 0.10412054 -0.074950926
-0.0150224315 0.15091792 0.010123385 0.091281794 -0.10213616 0.14098427 0.05312509 -0.051426
0.06777684 0.113735795 0.07098276 0.033725653 -0.01564159 -0.0035848273 -0.08215527 0.13776658
0.06650639 0.06570898 -0.058254283 -0.063896805 0.030017076 0.09918569 0.111997366 0.028792141
0.095404334 0.00011564861 0.0046278546 0.1557672 0.05484128 0.16014159 -0.115763135 0.048485372
0.005993985 0.09849241 0.081113 0.015889296 0.10769138 -0.024160113 -0.019444497 0.08896295
-0.046367712 0.074521765 0.026804192 -0.09376565 -0.042803623 -0.047293685 -0.075839765 -0.032375578
0.06993735 0.085335545 0.09439359 0.051425878 -0.07438803 -0.097118534 0.14484598 0.012091279
0.14220971 -0.11112447 -0.039794732 0.022330213 0.1384904 -0.064011335 -0.022095384 -0.05226167
0.09605492 0.047113184 -0.013814378 0.10891804 -0.07833216 0.015111035 -0.060282055 0.007826426
-0.0033410997 -0.019351672 0.11641554 -0.10624908 -0.042028736 -0.021308172 -0.03870833 0.12463206
0.048620857 0.0983489 0.08360443 -0.0015864483 0.08834956 -0.027105896 0.09665497 0.027343972
0.039608177 0.07144437 -0.040263806 0.105777085 0.10653943 -0.012904657 -0.031190837 -0.14139012
0.09291253 -0.10544295 -0.11123386 0.10144146 0.021710703 0.120339766 -0.09334892 -0.066757776
-0.027758682 0.08643096 -0.0883063 -0.10737277 -0.030231318 -0.07193885 0.12678984 0.06216793
-0.08727311 -0.055915058 -0.004200542 -0.07527635 -0.107155554 0.11396918 -0.08871508 0.07715831
-0.005777754 -0.09937719 -0.07125144 -0.051389076 -0.06317703 -0.08670906 0.001555994 -0.094982535
0.10285513 -0.12754141 -0.03102808 0.09367489 -0.088377565 -0.030244205 -0.10005515 -0.08989938
0.0950507 0.062749565 0.012115916 0.10513824 0.029758064 -0.06645798 -0.11618868 0.027392162
-0.030724904 0.15089181 -0.010118981 0.14375365 0.024740677 -0.026761742 -0.10881586 0.1623867
-0.069145575 0.110804304 -0.012121281 -0.06628684 -0.020016499 0.08836677 0.1018767 -0.073217995
-0.043129727 0.041322477 0.07564907 -0.08386046 0.077469625 0.020524455 -0.09748084 0.09392358
-0.08032189 0.03804035 -0.0337212 -0.04679843 0.010537497 -0.068802156 0.15081577 -0.083916314
0.10120689 0.04187692 0.017194374 0.026982872 -0.04626369 -0.003175091 0.12300239 -0.06768547
0.10337357 -0.0921142 -0.037326768 0.103617914 0.07664109 -0.08119811 -0.044325348 0.11052871
0.021920742 0.15359442 -0.09149002 0.04644635 -0.11815864 0.07695723 -0.04206532 0.022026818

lstm.weight_ih_l1 f4 [256, 64]
00000000: aa8f 43bc 5cdc 9f3c 757b 8ebd 71d8 80bd
00000010: a706 763d 89fb 91bd ada0 b93c f28f 3b3c
00000020: 7a4b ab3d 294f 14bd a6f7 cd3d 23d7 0dbb
00000030: 5b3f 97bd 0c7d 903c e105 a6bd 90ad 4c3d
00000040: dbf6 73bd 6c6a a83c 5b70 4cbd 6b77 acbc
00000050: 6009 bcbd ca66 4fbd 03c9 c63d 2af2 603d
00000060: 7eed 39bd fcc2 e4bb 079f e43c 1cdc 9b3d
00000070: 19c7 ad3d 9782 9ebd 81a3 1ebd c93b be3d
00000080: 6a4e 4b3a d42f 88bd 56dc 85bd 88b9 7cbd
00000090: 65f9 02be a843 aebd 089a 043e a338 4dbc
000000a0: eca9 aa3d bca4 e6bd e08b 573d 4507 ee3c
000000b0: 0001 07be 6dfd c4bc 3243 ba3c 84d5 b8bd
000000c0: 7910 983d c6a3 b23d c4ab d2bd 3890 57bd
000000d0: 8ce9 ac3d d390 cabb f093 91bd e449 313d
000000e0: 11cf c7bd 8244 0a3d 2f6a 7cbd 44eb 323d
000000f0: f574 68bd 2fa7 27bd 8a01 96bd 4175 763d
00000100: 8daa 11be 7cf0 b73d f0e4 7b3d 9fa4 93bd
00000110: ff4f e03d 9624 913d bc9e c2bd 3d72 44bb
00000120: 210a 253d 6af4 58bd 12f1 ce3d 7ab4 1fbd
00000130: cefd 9ebc 2d71 2d3c 691e 5e3d 200f 073e
00000140: a6f7 26be 55f2 25bd b897 abbc e2db aebd
00000150: 4096 21bd 445b 46bd 6542 6abd eeb3 e2bd
00000160: bdf5 49bd 6a78 7e3c 734f 9c3d 275e f3bc
00000170: 9890 ae3d 6bec 033d 0448 00be c53b 803d
00000180: 35ef b43b dbee 083e 935c 173c cf8a d7bc
00000190: 67e9 a33d b2b1 04be f22f 833d eed0 fbbd
000001a0: cfbb 97bc 4638 8ebb 92a2 10be fb1a 79bd
000001b0: eca5 94bd d48d 6fbd f4a5 8e3c eeb5 2bbd
000001c0: 6bb2 0b3e 22eb 88bb 7ab7 2d3c f5a2 b83a
000001d0: 3cb3 68bd 509d e23c be34 f3bd 69c4 e93d
000001e0: b9a6 49bd 36b5 15be c582 0ebc 254c 8ebd
000001f0: 6a26 ffbd 0fff bcbd 0f47 dabb 38c5 3c3d
00000200: 26c9 29be 28a1 52bd 0beb 54bc ffe1 d7bc
00000210: 3c6d 073d e780 a43d 8b2c c53c 1792 40bc
00000220: 96e1 943d 60b6 f8bc bc54 2c3c 0622 d73c
00000230: 17f2 70bc 7412 d23d f566 1b3e 24b1 673c
00000240: 2512 4ebd d7d1 21bd b690 363d d31e 4b3d
00000250: 6925 d4bd e06a 12be 8ff7 9ebc 6444 d738
00000260: b72d ca3d 84c9 7e3d 37bc 113d fdc1 f13d
00000270: 6c3e 3f3d a400 9fbd a023 c43d 8dc5 8abd
00000280: 4e2f c8bd a0d8 643d 0a31 47bd 9d8e 49bc
00000290: 2d24 6e3c 7852 043c e978 5ebd 9524 8d3d
000002a0: 4a7a 6a3d 20de 0f3d b7ba 223d 2a20 b3bd
000002b0: 707c 833d 9669 09bd 6607 85bd 3554 21bb
000002c0: 0411 d73c 2fd1 c93d d850 b1bb d377 ab3d
000002d0: c430 053d b316 6dbd a441 60bd b2f2 c0bc
000002e0: ac4d 85bd f8ee ac3d d30b ac3d cc4c d43d
000002f0: 20a3 0c3d 5793 143e 23b4 90bc 0d30 b23b
00000300: 4123 83bd 3d59 bcbd 1af0 d0bd 4a66 093c
00000310: a49a 9abd 0de0 b9bd b3d4 013d fb6f c1bd
00000320: 7739 f6bd 2f75 debd d15d ea3c 5a22 163c
00000330: 6444 cfbd f110 d7bd ed46 073d 13c2 ba3d
00000340: 7aaa a83c e310 3a3d 39e9 6a3c 0b1d 083d
00000350: 1bf4 6e3d 6168 7bbd 9fc8 953d f5ff 20bc
00000360: 50fa 0a3d 67c1 babd a094 57bd 59f3 a4bd
00000370: 948b 7ebd c2f4 c73d 23b2 4fbd faa8 573d
00000380: bc51 513c fa7d 3d3d a2d9 33bd cbe4 8dbd
00000390: a0df f9bd f8fa 783b 5cd7 04be a5ae 04be
000003a0: 4aed 143e 7435 1c3d b65a c3bc 8634 1bbd
000003b0: 5ee5 f13d e953 0dbc 6fe2 c7bd 9ca5 893d
000003c0: e9d6 f13d a78d 883c c11a bd3d 6321 9cbd
000003d0: a13c f23c 59af f13d 2e3d cabd b43c bbbd
000003e0: e7fd 2abb 13f5 503d 82d1 e13b bd47 97bb
000003f0: 6c43 a93d 201a bf3d 17e1 f3bd 215f d6bd
-0.011936108 0.019514255 -0.06957141 -0.06291283 0.060064938 -0.07128055 0.022659624 0.011447893
0.083640054 -0.036208306 0.10057001 -0.0021643124 -0.07385131 0.017637752 -0.0810659 0.04997021
-0.05956159 0.020558558 -0.049911838 -0.021053037 -0.09181476 -0.050635137 0.09706309 0.054918446
-0.045392506 -0.0069812518 0.027907861 0.07610342 0.084852405 -0.07739752 -0.03873015 0.09288747
0.000775552 -0.066497475 -0.06536166 -0.061700374 -0.12790449 -0.08508998 0.12949383 -0.01252571
0.08333191 -0.11261889 0.05262363 0.0290562 -0.13183975 -0.024046624 0.02273712 -0.090251
0.07425017 0.087226436 -0.10286668 -0.052627772 0.08442983 -0.006181815 -0.07108295 0.04328336
-0.09756292 0.03375674 -0.061624702 0.043681398 -0.056752164 -0.040930923 -0.07324512 0.060170416
-0.14225216 0.08981416 0.06149763 -0.07209133 0.10952758 0.07087056 -0.095029324 -0.0029975318
0.040292863 -0.052967466 0.10104574 -0.038990475 -0.019408133 0.010586065 0.05422822 0.13189363
-0.16305408 -0.04051431 -0.020946369 -0.08538033 -0.03944993 -0.04842688 -0.057192225 -0.11069475
-0.04930662 0.015531639 0.07632341 -0.029707981 0.08523673 0.032207888 -0.12527472 0.062614
0.0055216798 0.13372366 0.00923838 -0.026311306 0.08003502 -0.1295841 0.06405629 -0.122957096
-0.018522171 -0.0043402044 -0.14124516 -0.060816746 -0.072582096 -0.058484867 0.017413117 -0.04192155
0.1364228 -0.0041784206 0.010602826 0.0014086651 -0.056811556 0.027662903 -0.11875294 0.114144154
-0.049231265 -0.14619908 -0.00869817 -0.06948117 -0.12458499 -0.09228336 -0.006661303 0.04608652
-0.16580638 -0.05142322 -0.012995492 -0.02635288 0.03306316 0.08032399 0.024069091 -0.0117535805
0.072695896 -0.0303604 0.010518249 0.02626134 -0.014706156 0.10257426 0.15175994 0.014141355
-0.050310273 -0.03950676 0.0445716 0.049589943 -0.10358698 -0.14298582 -0.019405155 0.00010264738
0.09872001 0.0622039 0.035579886 0.118045785 0.04669039 -0.07763794 0.095771074 -0.06775961
-0.09774648 0.055870652 -0.04863075 -0.012302068 0.014534992 0.008076303 -0.054314528 0.06891743
0.05724553 0.035123944 0.039728846 -0.08746369 0.06420219 -0.03354796 -0.06495552 -0.0024616842
0.02625323 0.09854352 -0.0054112487 0.08372464 0.03251721 -0.057882976 -0.0547501 -0.023553226
-0.06508955 0.08444017 0.08400693 0.1036621 0.034335256 0.1450933 -0.01766402 0.005437857
-0.064032085 -0.09196708 -0.10202046 0.008386204 -0.075490266 -0.090759374 0.031696986 -0.09445187
-0.12022679 -0.10862195 0.028609188 0.0091634635 -0.10120466 -0.10501278 0.033026624 0.09119048
0.020589102 0.04542626 0.014337831 0.033230823 0.058338266 -0.06137884 0.07313656 -0.00982665
0.033930123 -0.0911892 -0.052631974 -0.080542274 -0.06214483 0.09763481 -0.050706994 0.052651383
0.012775835 0.04626272 -0.043908723 -0.069284044 -0.12200856 0.0037991386 -0.12972778 -0.12957247
0.14543644 0.038136914 -0.023846965 -0.037891887 0.118113264 -0.008625963 -0.09759986 0.067210406
0.11808569 0.016669108 0.092336185 -0.076235555 0.029569926 0.11801023 -0.0987495 -0.091424376
-0.002609128 0.05101497 0.0068914304 -0.004616706 0.08264813 0.09331155 -0.11908167 -0.10467363

lstm.weight_hh_l1 f4 [256, 64]
00000000: 5892 6abd ed47 1dbe c0ac 6e3d 3a40 2bbd
00000010: fe01 c3bc 51dd 4ebd 0820 5fbc 431c fd3d
00000020: 32b1 533d e0e7 3cbd 6488 da3d 1d2e aebd
00000030: c4e5 333c 29b5 b4bd 38eb 093c ccc8 babd
00000040: dfce 353d 8aa9 f3bc 6f0d 163d 4894 bbbd
00000050: 2055 ff3d 51bc dd3d 746f 833d 9de7 e2bd
00000060: c17a 00be 64d7 cabd 87f4 553d c688 2c3d
00000070: ecd2 563d a98e afbd 8eb3 593d 7779 d4bd
00000080: ce36 e4bd 5321 5cbd 805d a73d a2ad 77bd
00000090: f318 653d 2501 823d b6e2 a23d 3cdd f8bd
000000a0: 828a 5cbd 96de c5bd b69c 28bd f863 5d3d
000000b0: b65d 9fbc 9a45 fc3d e590 023e 039b a2bc
000000c0: 87ee cf3b 4d6e 573d b213 373c c3e6 5dbc
000000d0: 26fd 9a3d 49bc f1bd 6d20 81bd fd6c 2abd
000000e0: 7275 073e fd87 d9bd e6d6 8ebd 9aa4 44bd
000000f0: ab81 85bd dc57 f2bd 2514 b2bd 7b76 8c3c
00000100: 3034 bd3d 4f42 923c 1b31 243d 6ab2 c53d
00000110: d490 97bc b022 d23d 7ac7 af3c 64ae 90bd
00000120: e08e ca3d 724a 253d f162 263b b2b7 be3d
00000130: a8a1 963d dfd4 383d 0f53 6abd 48bd 1dbc
00000140: 02c1 26bd f5f7 d6bc 9266 abbd 97bb 0d3b
00000150: b261 9cbb a701 e33c 99f5 cbbd 6a66 f3bc
00000160: 8f63 33bc 70b7 b93d 1e24 b1bd a19a 9f3d
00000170: 7b44 633d c9f7 e53d 9ad2 fabd 0050 903d
00000180: eac1 5fbc bde1 8dbd acea 6ebd 9274 77bc
00000190: 5d0e 6b3d a09b 32bd 8ed8 67bd 1a50 c9bc
000001a0: e459 96bd c4bf 76bb 7cdb ff3d 677f e9bd
000001b0: 00a3 72bd 22c7 753d c043 73bd ae94 b93c
000001c0: b7b9 ea3d 8331 88bd 2f65 aebd 8538 433d
000001d0: e7d2 003e 3c1b c5bd b9ad e53d f23d bfbc
000001e0: b94b 88bd 907e 893d b9ea f73d e521 b63c
000001f0: 46bb 19bd 37b6 9cbd a4b1 d5bc 6b4a f7bd
00000200: 5501 3b3d 6e0d 903c 2832 ca3c c8f7 5d3d
00000210: 4c3a 983c 28f6 1d3d 1776 533d eb3a 643d
00000220: 5638 5fbd ced3 893d 7917 c13c 0312 01be
00000230: 8e48 0c3d 1983 97bd eb05 1ebd 2733 29bd
00000240: eedc 85bd 4b17 293d b384 b4bc e0c2 9b3c
00000250: f35c 4bbd 56bb bcbd 0e3a a2bd 8506 c53d
00000260: 60cd e5bd cc7a 15be 886e 9fbd 60ef 11be
00000270: 3836 50bd 4cdd 333d da70 a03d a296 7cbd
00000280: b837 b43d e287 823c f82e bdbc f631 093e
00000290: 0185 ea3d 4df8 023e 867b cdbd 1504 863d
000002a0: 817e 15be c7c1 3ebd b922 e43d b4cc 3abd
000002b0: c91a b4bd 57b7 90bd 98c6 ed3d 9bcd 61bd
000002c0: a2d3 893d d54a 9cbd bdec e23d 1d3d 55bc
000002d0: 1856 ec3c 1b06 9c3d f56d cbbd b6e7 803d
000002e0: 947f 423d 5c42 f7ba d868 82bd fa6c 213d
000002f0: 7160 243d 6214 8d3d 0172 d53b ad66 233d
00000300: ee98 ffbd 6e79 c2bd c948 693c 4417 03be
00000310: 2835 4cbc 056a 89bd 9ad4 2a3d ccfa c1bd
00000320: 34b0 9abd f32b 983d 0254 60bd 96b6 9ebd
00000330: b519 cc3d 859c e53d b2d2 b83c 3e2a 49bd
00000340: b900 22bd e182 97bd 2ea6 9dbc 7b1c 883c
00000350: 087c dbbc 8cdc 8cbd c45a 023e 9591 bdbd
00000360: 10c1 59bd 627c 053e f9c6 82bb 3265 9a3c
00000370: 5794 8f3d fe0a d5ba 0287 1ebc 66ae 903d
00000380: bb9c 143d 1d88 cebd 926a 3f3d 6613 8abd
00000390: 8c34 103e cbd8 e23c c59c c83c 7f5e c23d
000003a0: fe39 92bc 8362 373d 7145 bcbd 0eec 6c3d
000003b0: 7dfa d33d 7122 48bd ca66 f0bc fa65 923c
000003c0: b064 2bbd 2d5e 5fbd 4f10 59bd f6eb c0bd
000003d0: 5b51 373d 3972 cebc 5cf0 ec3d a260 7dbd
000003e0: 34bc a33d 888a 84bd e421 08be 260b 4d3d
000003f0: 0c95 18bc 9aa9 b1bd 4011 a2bd 43bc 88bd
-0.05726847 -0.15359469 0.058270216 -0.041809298 -0.02380466 -0.050504033 -0.013618477 0.12358906
0.05168266 -0.04611957 0.10670546 -0.08504889 0.010980073 -0.08823616 0.008417897 -0.0912033
0.04438674 -0.029743928 0.036633905 -0.09159142 0.12467408 0.10826934 0.06417742 -0.11079333
-0.12546827 -0.09904364 0.052235153 0.042122625 0.052447245 -0.08572132 0.053149752 -0.1037473
-0.11143266 -0.053742718 0.081721306 -0.060468324 0.055931997 0.063478746 0.07953398 -0.12151572
-0.05384303 -0.096615955 -0.041165076 0.054050416 -0.019453865 0.12317963 0.12750585 -0.019849306
0.0063455733 0.052595425 0.011174129 -0.013543787 0.075678155 -0.11803491 -0.06305013 -0.041607846
0.13228396 -0.10621641 -0.069745824 -0.04800854 -0.06518873 -0.11833164 -0.086952485 0.01714634
0.092384696 0.017853884 0.040085893 0.096531704 -0.018501677 0.10260522 0.021457423 -0.07064512
0.098905325 0.0403542 0.0025388564 0.09312381 0.07355052 0.045124885 -0.057208117 -0.009627648
-0.04071141 -0.026241282 -0.08369173 0.0021626705 -0.0047723884 0.027710749 -0.099589534 -0.02971192
-0.01094903 0.09068191 -0.08649467 0.07793165 0.05548523 0.11228902 -0.122472 0.07046509
-0.013657073 -0.06927822 -0.05832927 -0.015103476 0.057386745 -0.043605447 -0.056603007 -0.024574328
-0.07341364 -0.0037650922 0.12493035 -0.11401253 -0.05923748 0.06000436 -0.059390783 0.022653904
0.114612035 -0.066500686 -0.08515393 0.047661323 0.12580453 -0.09624335 0.112147756 -0.023344968
-0.06655068 0.06713593 0.12105317 0.022232959 -0.037532113 -0.07651942 -0.026085682 -0.12074741
0.045655567 0.017584529 0.02468212 0.05419138 0.018582486 0.03856483 0.05162629 0.05572025
-0.054497086 0.06729852 0.023570763 -0.12604527 0.03424888 -0.07398052 -0.038579863 -0.04130855
-0.065362796 0.04128198 -0.022035932 0.019013822 -0.04964919 -0.09215419 -0.07921229 0.09620384
-0.11220813 -0.14597625 -0.07784754 -0.1425147 -0.050832957 0.043912217 0.07834025 -0.061667092
0.0879969 0.015933935 -0.023093686 0.13397965 0.1145115 0.12790032 -0.10033326 0.06543747
-0.14599039 -0.04657152 0.11139435 -0.045605376 -0.08794171 -0.07066219 0.116101444 -0.05512772
0.06729819 -0.076314606 0.110803105 -0.013015059 0.028849646 0.07618352 -0.09933082 0.06294195
0.04748495 -0.0018864381 -0.063676536 0.03941057 0.040131036 0.06888653 0.0065138345 0.03989284
-0.12480341 -0.09495817 0.014238545 -0.12801844 -0.012463845 -0.06709675 0.04170666 -0.09471664
-0.07553139 0.07430258 -0.054767616 -0.07749669 0.09965841 0.11211494 0.022561405 -0.04911255
-0.03955147 -0.0739801 -0.01924428 0.016615143 -0.026792541 -0.068780035 0.12729937 -0.09256283
-0.053162634 0.1303573 -0.0039910045 0.018847082 0.070107155 -0.0016253886 -0.009675743 0.07064514
0.036282282 -0.10084555 0.046732493 -0.06741981 0.14082545 0.027691266 0.024488816 0.0949068
-0.017849918 0.044771682 -0.091929324 0.057842307 0.10350511 -0.04886097 -0.029345889 0.017870892
-0.04184407 -0.054533172 -0.05299407 -0.09420006 0.04475532 -0.02520095 0.115692824 -0.061859734
0.07994881 -0.06471735 -0.13294178 0.05005946 -0.009312879 -0.08674927 -0.079134464 -0.06676533

lstm.bias_ih_l1 f4 [256]
00000000: 8efe 52bd 51ad 97bd 9c51 083e 2130 d4bd
00000010: 30e8 c2bc 90d1 3fbd e186 453c 5a6d cbbd
00000020: b1c3 a2bd 6468 963d ed17 d8bd 7ccc 9aba
00000030: 1c6b b53c fcbe 00be da75 4f3d c4d1 56bd
00000040: ab22 bd3b 3aa0 06be c85f d03d 0351 183e
00000050: 9be6 f43d 37ce 76bd 2634 923b 002d c73d
00000060: 66e9 89bb 6351 763d f4dd 013e 05d1 d4bd
00000070: a3d7 77bd 9217 e53d f9e1 1bbd f215 22bd
00000080: f38c 943d 6fe3 a2bc 6431 65bd 1162 d8bd
00000090: eec8 f7ba 93f5 98bc c573 eebd 51e1 b5bc
000000a0: 0509 043c 6e8d ebbd b50d c73d 7314 cebd
000000b0: c5c7 ba3c 62bf 8f3c 1be2 03bd 4152 aebd
000000c0: 7ff5 bcbc 61c0 a33c eaaa 523c a1fd a0bc
000000d0: 392e 453d 5c5a 3a3d 3e92 fbbd 126b a2bd
000000e0: 429b 72bd 4374 d03c e494 9ebd 5133 043e
000000f0: 64f8 b03d fe07 d73d a852 703d a1e8 cc3b
00000100: 455e 483d ed47 ffbc 3c20 f83c ee4f 0ebd
00000110: 11cf cb3d 2b5c 913d 782a 10bd 3e8e bc3d
00000120: 530f bcbd 85d0 b9bd 8af5 fcbc 8f24 6c3d
00000130: a774 f23b ccfd 83bd 1093 cc3d 4e19 ac3c
00000140: 35ad 463d c6e4 e2bc cedd 063c b663 413b
00000150: 29a9 c8bd 78ad 963d 4648 c1bb f4f3 843d
00000160: fa54 8cbd 090f cbbd 3de7 f4bc 7ae5 ac3c
00000170: 1033 7e3d 44e4 87bd 7a4e d83d f2d5 fe3d
00000180: 299f a6bb 6211 e13d e208 7fbd d589 c83d
00000190: bbac 08be 6f20 063e 8b4f b73d 2b5e 1f3d
000001a0: ea7e ee3d 12b9 77bd 7903 ea3d f68e 583d
000001b0: dab2 983d 51bc e33d 7aa4 e0bd e096 2b3d
000001c0: bf60 d13c 595a f93d 0b91 283d fe90 3bbb
000001d0: c244 ae3d 410c 9f3d 2e90 cc3c 9cf1 38bd
000001e0: 019b 963d 0872 70bd 5031 34bc ce7a 193e
000001f0: 5f0c ea3d f239 2e3d a1aa 183e 0e30 47bd
00000200: 2358 893d 1cd4 3cbd eb9c b53d 4aaf 713d
00000210: 72f3 dfbc 9ad6 d6bd 3670 a73d c567 e4bd
00000220: 8977 f63b f134 85bc 76dc bfbd 68a3 803c
00000230: 7756 90bd 3058 51bd ce5c d53d 66c7 fc3a
00000240: 7748 8d3d f331 5fbd 4ffc 483d bbe7 e93d
00000250: 0c66 8ebc 8e57 6ebd 9d17 9f3d 6a1d 123d
00000260: 920d debd 5911 67bd 9ab3 11bd ccef 5ebd
00000270: 991b e2bd 3d02 963c f055 59bd 23fe cc3c
00000280: e6d3 3fbd 47c7 d53d 2ba3 36bc 6246 8e3c
00000290: 1138 c9bd b11b 13bb 2787 e33b 77c5 1fbd
000002a0: 064b df3d 6065 a83d b37a 153c 5c33 86bd
000002b0: 2818 8f3d be5e 9ebd 4550 c33d f8e5 443d
000002c0: 3d19 cfbd 39c5 0f3d da5a 753c 7442 03be
000002d0: 5f4c c4bd bd1d 93bd a7fc 053d 6295 9dbd
000002e0: 4078 d63d 1c6d 9e3d 6530 bb3d 86e9 163d
000002f0: 40d5 1c3d 2c75 0ebb 210a d33a 193c 61bd
00000300: 79fd a53d c1a4 6b3d 65dc 92bc fd17 853d
00000310: e2ae f23c ad7d c43d 720d 79bd 0cba afbd
00000320: a1b4 b43d eddf fa3b 897e bfbd 27f7 143c
00000330: cfe9 cebc ea13 8ebc c800 2ebd eb79 b7bd
00000340: 5547 6bbd 3b60 6fbd 9a17 5a3d 967c c4bc
00000350: 4338 893d 3d93 c0bd 8aaa 02bd 3fec e43c
00000360: ee74 b53d 25d8 aabd ca6d 093e 4ad2 e93d
00000370: f334 a33d bb3d 8c3d 35e0 a5bc 82d1 473d
00000380: 27e5 0b3e f798 17bc b51c 00bd 582b 813d
00000390: c88b 50bc 8230 e83c 8768 cb3d 119a 81bd
000003a0: ecc7 ad3d 5b4d b63d ff44 a83c a0dd 25bc
000003b0: 1664 a83d ab42 2d3d d2b3 823c 9331 8a3c
000003c0: 06ae b03d 5638 de3d 46b3 17bd 236e c43c
000003d0: e559 c53d bdd8 903d ec3d abbd bf84 ce3d
000003e0: 3e94 e1bd 9d17 50bd 4a8c 993b 288e b9bc
000003f0: 9b8b cb3d 4a63 f63c 9d33 0e3e c505 05bd
-0.051512294 -0.07406104 0.13312382 -0.10360742 -0.023792356 -0.046830714 0.012056083 -0.099329665
-0.079474814 0.0734413 -0.105514385 -0.0011810209 0.0221458 -0.12572855 0.0506495 -0.05244614
0.005771955 -0.13147059 0.10174519 0.14874654 0.11958047 -0.060255256 0.004461783 0.0972538
-0.0042087315 0.06013621 0.12682325 -0.1039143 -0.06050838 0.11186136 -0.0380573 -0.03957171
0.072534464 -0.01988384 -0.055955306 -0.1056558 -0.0018904486 -0.018671786 -0.11643175 -0.022202166
0.008058791 -0.11501585 0.09719411 -0.10062494 0.022800336 0.017547313 -0.032198053 -0.085117824
-0.02306628 0.019989194 0.012858132 -0.01965219 0.048139784 0.04549633 -0.12283753 -0.07930578
-0.059230097 0.025446063 -0.077432424 0.129102 0.08641127 0.10499571 0.058672577 0.0062533175
0.048918027 -0.031162227 0.030288808 -0.034744196 0.09951604 0.07097658 -0.03519675 0.09206818
-0.0918261 -0.09072975 -0.0308788 0.057652052 0.00739916 -0.06444892 0.099889874 0.02100816
0.048505027 -0.027696978 0.008231593 0.0029508895 -0.0979789 0.07357305 -0.0058985082 0.06491843
-0.068521455 -0.09914977 -0.02989542 0.021105517 0.062060416 -0.06635335 0.10561843 0.124431506
-0.0050848913 0.10989644 -0.06226433 0.097919144 -0.13347141 0.1309831 0.089507185 0.038908165
0.11645301 -0.06047923 0.114264436 0.052870713 0.07455988 0.11119903 -0.109688714 0.041891932
0.025558827 0.121754356 0.04115395 -0.0028620358 0.08509208 0.07766009 0.024971094 -0.04515229
0.073537834 -0.0587025 -0.010998085 0.14988253 0.11428141 0.04253573 0.1490884 -0.048629813
0.06706264 -0.04610072 0.0886782 0.05900506 -0.027337763 -0.10490151 0.081756994 -0.11152605
0.007521574 -0.016260596 -0.093682215 0.015702918 -0.07047742 -0.051109493 0.10418092 0.00192855
0.06898587 -0.054490995 0.049068745 0.11421152 -0.017382644 -0.058188967 0.07768176 0.035672583
-0.10842432 -0.05641303 -0.035571672 -0.054427907 -0.1104042 0.018311614 -0.053060472 0.025023526
-0.04683294 0.104384 -0.011147301 0.017367546 -0.09825147 -0.0022446925 0.0069436016 -0.039006677
0.109029815 0.08222461 0.009123492 -0.06552765 0.06987029 -0.077329144 0.095367946 0.048070878
-0.10112236 0.035100196 0.014975274 -0.12818319 -0.09584879 -0.071834065 0.03271165 -0.07694508
0.104721546 0.07735655 0.0914009 0.0368438 0.03828931 -0.002173732 0.0016101041 -0.054988954
0.08104987 0.05753017 -0.017927358 0.06498716 0.029624406 0.09594283 -0.060803838 -0.085804075
0.08823515 0.0076560886 -0.093503065 0.009092129 -0.025257973 -0.01734348 -0.042481214 -0.08958801
-0.057441074 -0.058441382 0.053245164 -0.023985188 0.06700184 -0.094030835 -0.03190092 0.027944682
0.08860193 -0.083420075 0.13420787 0.114170626 0.07969084 0.06847712 -0.020248512 0.048783787
0.13661633 -0.009252778 -0.031277377 0.06307095 -0.012728639 0.028343443 0.099320464 -0.06328214
0.08485398 0.08901473 0.020540712 -0.01012364 0.08222215 0.042299908 0.015954886 0.016869342
0.08626942 0.10850589 -0.037036203 0.023978299 0.09636287 0.070725895 -0.0836142 0.10083913
-0.11014603 -0.05080377 0.004685913 -0.022650793 0.09938737 0.030076642 0.13886876 -0.032476205
