EXPERIMENTS/apriltag_detection/misc2/apriltag_multitask_quant.tflite (tflite, 339240 bytes, 13 tensors)

arith.constant f4 [16]
0	0x3d965016	0.07339494
1	0x3dabecea	0.08394797
2	0x3d62458b	0.055242103
3	0x3e5dd730	0.21664119
4	0x3ceb6e22	0.028739039
5	0x3d1781be	0.036988966
6	0xbb7580f4	-0.0037460895
7	0xbcbb0c18	-0.022832915
8	0xbd932622	-0.07185008
9	0x3b778b3d	0.0037772201
10	0xbe59964e	-0.21248743
11	0x3d983ddc	0.07433674
12	0x3d64c0f7	0.055848088
13	0x3e346d33	0.17619781
14	0x3d3f6795	0.046729643
15	0x3cf8a6ae	0.030352917

arith.constant1 f4 [16, 3, 3, 1]
0	0xbc011fc0	-0.007881105
1	0xbeaefcff	-0.34177396
2	0x3e879ce7	0.26486894
3	0x3d871545	0.06595854
4	0xbcfbbf04	-0.030730732
5	0xbe183eda	-0.14867726
6	0x3c377d4a	0.011199305
7	0x3ebbc5f3	0.3667446
8	0xbec4b168	-0.384166
9	0xbe3e39c9	-0.18576731
10	0x3e9074ab	0.2821401
11	0xbdf61531	-0.12015761
12	0xbe50bb76	-0.2038401
13	0x3e756839	0.23965539
14	0xbe3317b4	-0.17489511
15	0xbe5f0fbd	-0.21783347
16	0x3ead2fc5	0.33825508
17	0xbe5367fa	-0.20645133
18	0xbcdf10ba	-0.027229656
19	0xbe0998e2	-0.13437226
20	0xbea04920	-0.3130579
21	0xbe0818b1	-0.13290669
22	0xbe8293c8	-0.25503373
23	0xbd100bfc	-0.03516768
24	0x3e9f883d	0.3115863
25	0x3e60cdfb	0.21953575
26	0x3dad40f8	0.084596574
27	0xbed478ec	-0.41498506
28	0xbeaa446c	-0.33255327
29	0x3e7850c0	0.24249554
30	0xbeb155eb	-0.34635863
31	0xbef4ff9b	-0.47851261
32	0xbd1b7cfc	-0.03796099
33	0x3da079c1	0.07835723
34	0xbef25438	-0.4732988
35	0xbe4a6190	-0.1976378
36	0xbd2a166f	-0.0415253
37	0xbe924796	-0.2857024
38	0xbda2dbdc	-0.07952091
39	0xbe48ca4c	-0.1960842
40	0x3e6af674	0.22945577
41	0xbd13d056	-0.036087357
42	0xbe9f4e52	-0.3111444
43	0x3e322b08	0.17399228
44	0xbe12ce6d	-0.14336558
45	0xbe7a1869	-0.24423374
46	0x3e8c1915	0.27362886
47	0x3e071727	0.13192426
48	0xbe95e287	-0.2927439
49	0x3e93ef39	0.2889345
50	0x3e7c4d5f	0.2463889
51	0xbe7da5b5	-0.24770243
52	0xbc1a4325	-0.009415423
53	0xbe55e0bb	-0.20886509
54	0x3ec205fb	0.37895188
55	0x3e944f0b	0.28966555
56	0x3d47bfc3	0.048766863
57	0xbec726a4	-0.38896668
58	0xbea3a8b3	-0.31964645
59	0xbe988c78	-0.2979467
60	0x3d152a47	0.036417272
61	0xbd80821b	-0.06274816
62	0x3db4e14a	0.08832033
63	0x3cc92b45	0.024556765
64	0xbd455792	-0.048179217
65	0xbd5236f7	-0.05132195
66	0xbd960e24	-0.07326916
67	0xbe40e739	-0.18838204
68	0xbde3b5fb	-0.111186944
69	0xbe4457d0	-0.19174123
70	0xbe17071d	-0.14748807
71	0xbd16af7d	-0.036788452
72	0x3e1468b1	0.14493062
73	0x3e0ed5e9	0.13948788
74	0xbd67f4cd	-0.056629945
75	0x3e038254	0.12842685
76	0xbe96670e	-0.293755
77	0x3e201f4f	0.15636943
78	0x3db362c4	0.087590724
79	0xbea17a19	-0.31538466
80	0x3bc62548	0.0060469247
81	0x3e2024ae	0.15638992
82	0xbde1dbab	-0.110282265
83	0x3cd591a3	0.026070422
84	0x3e10a815	0.14126618
85	0xbe449204	-0.19196326
86	0xbe680680	-0.2265873
87	0xbebd1840	-0.36932564
88	0x3e8ca8ed	0.2747263
89	0x3d2beef4	0.04197593
90	0x3d3a6706	0.045508407
91	0x3e04c090	0.12964082
92	0x3df5c67e	0.1200075
93	0xbdb77ac3	-0.08958962
94	0x3d820d29	0.06350166
95	0x3de30fc8	0.110869944
96	0x3d398f99	0.04530296
97	0x3e13fdfc	0.14452356
98	0xbd89f247	-0.06735664
99	0xbe1278b4	-0.14303857
100	0xbe0017d6	-0.12509093
101	0x3e816dc9	0.25279072
102	0xbe46b2c5	-0.19404133
103	0x3e2a33c2	0.16621307
104	0xbe8ffc1d	-0.28122035
105	0xba707708	-0.00091730105
106	0x3e98c698	0.29839015
107	0xbe8f241f	-0.27957246
108	0x3e621a5d	0.2208037
109	0xbed94fa5	-0.42443576
110	0xbe194394	-0.14967185
111	0x3e472c49	0.19450487
112	0x3c3736b4	0.011182476
113	0xbea51dd2	-0.32249314
114	0xbdeae8f2	-0.11470212
115	0x3e4d4a88	0.20047963
116	0x3e0b3c1a	0.13597146
117	0xbcc3194e	-0.023815777
118	0xbe99da1b	-0.30049214
119	0xbe708f53	-0.23492174
120	0x3e517dc8	0.20458138
121	0xbe602028	-0.21887267
122	0xbdab2d37	-0.083582334
123	0xbdf05e6b	-0.11736759
124	0xbe93e0bf	-0.28882405
125	0xbd86ac69	-0.065758534
126	0xbe516f0b	-0.20452516
127	0xbdc51755	-0.09623591
128	0x3db836ae	0.08994804
129	0xbe8e48b1	-0.27789834
130	0x3e97a056	0.29614514
131	0x3e851f6e	0.2600054
132	0x3c9b35d7	0.018946571
133	0xbd67b27d	-0.056566704
134	0xbe5f5ee3	-0.2181354
135	0x3e49561c	0.19661754
136	0xbdfcefea	-0.123504475
137	0xbeaa6352	-0.332789
138	0x3e736fee	0.23773167
139	0x3ead8012	0.33886772
140	0xbea50e88	-0.3223765
141	0xbe0a5547	-0.13509093
142	0x3e937262	0.28798205
143	0xbe88df32	-0.26732785

arith.constant5 f4 [1, 64]
0	0xbf7d62ce	-0.9897889
1	0xbf289e0f	-0.6586618
2	0x3f0f67b6	0.56017625
3	0x3f321f94	0.69579434
4	0xbf82822a	-1.0195973
5	0x3f070dde	0.52755535
6	0xbe5fe9e0	-0.2186656
7	0x3e69438d	0.22779675
8	0x3e0cf161	0.13763954
9	0xbf02fea5	-0.51169807
10	0x3f37a5ec	0.7173755
11	0x3c5874af	0.013211413
12	0xbd86907f	-0.06570529
13	0xbf344296	-0.704141
14	0xbcb62a0a	-0.022236843
15	0x3e479ad2	0.19492653
16	0x3e05bffb	0.13061516
17	0xbe860eb1	-0.26183084
18	0xbf89b668	-1.0758791
19	0x3e1876e5	0.14889105
20	0x3f15ba5b	0.5848748
21	0x3d6fdfa8	0.058562905
22	0xbe3a489e	-0.18191764
23	0x3e8ba581	0.27274707
24	0x3f38047a	0.7188183
25	0x3e879564	0.26481164
26	0x3f2961fa	0.66165125
27	0x3f077508	0.5291295
28	0xbf3f44f5	-0.74714595
29	0x3f03bc70	0.5145941
30	0xbdce2223	-0.10065105
31	0xbf4b6681	-0.79453284
32	0xbd0d4361	-0.034488086
33	0x3e85d1f4	0.26136744
34	0xbe1717e1	-0.14755203
35	0x3f11dd1d	0.5697802
36	0xbe6a52b8	-0.22883117
37	0x3dae2cfe	0.08504675
38	0x3f15be28	0.5849328
39	0xbf1ba8e4	-0.6080458
40	0xbf25b3c7	-0.64727443
41	0xbadc746e	-0.0016819367
42	0xbeedf440	-0.4647541
43	0xbf6a5255	-0.9153188
44	0xbe4f2304	-0.20228201
45	0xbf03a64f	-0.5142564
46	0xbd5ff5d6	-0.054677807
47	0xbf07dfb8	-0.5307574
48	0x3f002816	0.50061166
49	0x3c48e317	0.012261174
50	0x3df4a268	0.11945039
51	0x3e38ec41	0.18058874
52	0xbf31c038	-0.6943393
53	0xbeb8ae50	-0.3607049
54	0xbdb81a26	-0.089893624
55	0xbf8c5c78	-1.0965719
56	0x3f23fc94	0.6405728
57	0xbf684ebe	-0.9074515
58	0xbd7839f6	-0.06060215
59	0xbe0616f4	-0.13094693
60	0x3cff9a32	0.031201456
61	0xbdc419be	-0.095752224
62	0xbe87757c	-0.2645682
63	0xbd8b1ac0	-0.067922115

arith.constant6 f4 [8, 64]
0	0x3ce1c673	0.027560448
1	0xbc87f308	-0.016595379
2	0xbe0b247d	-0.13588138
3	0xbd82b80f	-0.06382763
4	0x3c4612de	0.012089459
5	0xbd5ca489	-0.05386785
6	0x3d831685	0.0640078
7	0xbce919a0	-0.028454602
8	0xbd552b1d	-0.05204307
9	0xbb911489	-0.004427497
10	0x3b5c3ae2	0.0033604433
11	0xbc884ea9	-0.01663907
12	0x3b957af9	0.0045617786
13	0xbdcccc75	-0.099999346
14	0x3c0c66b7	0.008569411
15	0x3d272544	0.040807024
16	0xbbfa7e4b	-0.00764445
17	0x3e2450d8	0.16046464
18	0xbc42ae2a	-0.011882344
19	0xbe2f1460	-0.17097616
20	0xbc9c6068	-0.019088939
21	0x3cf18d55	0.029486338
22	0x3d8954a9	0.06705601
23	0xbd1b1440	-0.03786111
24	0x3e0a7334	0.13520509
25	0x3cda6be4	0.026662774
26	0xbd343085	-0.043991584
27	0x3e3ab772	0.18234041
28	0x3b80e1d8	0.0039331727
29	0xbe6277e0	-0.22116041
30	0x3d1f69a8	0.03891912
31	0xbd533b25	-0.051570076
32	0x3d666ac2	0.056254156
33	0x3e712990	0.23551011
34	0xbd8de023	-0.06927516
35	0x3aae144b	0.0013281194
36	0xbc8cb9b1	-0.017178388
37	0x3d7785b3	0.06043024
38	0x3d6206e2	0.055182345
39	0xbdaee01f	-0.085388415
40	0x3bcfb433	0.00633862
41	0x3e2f04bd	0.17091651
42	0xbc833653	-0.016017115
43	0x3e2f9786	0.17147645
44	0x3bd58b88	0.0065168776
45	0xbdab486b	-0.08363422
46	0x3d9e6d2c	0.07735667
47	0xbb5505f1	-0.0032504762
48	0xbcb12eee	-0.021628823
49	0x3dafd9f6	0.085864946
50	0xbd51d366	-0.051226996
51	0xbdc30d68	-0.095240414
52	0xbdcd7f77	-0.100340776
53	0x3e363a3f	0.17795657
54	0xbd80b38b	-0.06284245
55	0xbdcb26be	-0.09919499
56	0x3df1ac3e	0.11800431
57	0x3b7a1726	0.003816077
58	0x3d620a59	0.05518565
59	0x3d3bfc6d	0.04589503
60	0x3d1158ea	0.035485186
61	0xbcd54aec	-0.026036702
62	0x3d43df3a	0.047820307
63	0x3db2f897	0.08738821
64	0xbe1e4ea5	-0.15459688
65	0x3d3ee27d	0.046602715
66	0x3d392fad	0.045211483
67	0x3e06b54c	0.13155097
68	0xbbdcadcd	-0.006734586
69	0xbd52b0bd	-0.051438082
70	0x3c24e488	0.010064252
71	0xbe0271e5	-0.1273876
72	0x3ca987cc	0.020694636
73	0xbc0a3b00	-0.008436918
74	0xbd29ec6a	-0.041485228
75	0xbb915d88	-0.0044361986
76	0xbda00813	-0.0781404
77	0xbe2e360d	-0.17012806
78	0x3d88f31d	0.06686995
79	0xbce59bc6	-0.02802838
80	0xbe125184	-0.14288908
81	0x3dc20054	0.09472719
82	0xbc160fd1	-0.009159044
83	0xbd1d8411	-0.038456026
84	0xbda4f32d	-0.080541946
85	0xbd0054d1	-0.031330887
86	0xbdd7a061	-0.10528637
87	0xbca860e9	-0.020554023
88	0x3ddfd2aa	0.10928853
89	0xbd26de5a	-0.040739395
90	0x3b77ba56	0.0037800274
91	0x3df69a12	0.12041105
92	0x3b1e61c8	0.002416717
93	0xbe5f2710	-0.21792245
94	0x3d676d89	0.056500945
95	0xbd840458	-0.06446141
96	0x3e155e53	0.14586763
97	0xbd4521c3	-0.0481279
98	0x3de6f839	0.112778135
99	0x3c0debab	0.008662145
100	0x3d09fe92	0.033690043
101	0x3b3fc169	0.0029259569
102	0x3dc63aca	0.09679182
103	0x3e06de82	0.13170817
104	0x3d1d9ec1	0.038481478
105	0x3d7287c0	0.059211493
106	0x3cfcff36	0.030883413
107	0x3e154c31	0.14579846
108	0x3ccc968a	0.024974126
109	0xbd5ea3ae	-0.054355316
110	0x3c1a1afe	0.0094058495
111	0xbc1b3f8f	-0.009475603
112	0x3d6aa552	0.057286568
113	0xbcd608b1	-0.026127191
114	0x3d8e963f	0.06962251
115	0xbdaa2664	-0.08308104
116	0xbda24fea	-0.07925399
117	0x3e5dd03d	0.21661468
118	0xbc7bf1e3	-0.0153774945
119	0xbe1980c8	-0.14990532
120	0xbdb2390b	-0.08702286
121	0xbc4e8eb2	-0.012607263
122	0x3bc4cb7c	0.0060057025
123	0x3ca21875	0.019787053
124	0xbbadd283	-0.005304636
125	0x3d9fd68e	0.07804595
126	0xbcd6bdcf	-0.026213555
127	0xbdb613cc	-0.08890495
128	0xbd389d88	-0.04507211
129	0x3d79584f	0.060875233
130	0x3e105627	0.14095365
131	0x3d8cedb4	0.06881276
132	0x3c4fd570	0.012685165
133	0xbc8e9b65	-0.017408082
134	0x3e02640e	0.1273348
135	0x3de2bb21	0.11070848
136	0xbd6480a3	-0.05578674
137	0xbb840036	-0.0040283455
138	0xbda2006d	-0.079102375
139	0xbb9f9a8f	-0.0048707197
140	0x3c456ea7	0.012050307
141	0xbdc419c0	-0.09575224
142	0x3d890a64	0.06691435
143	0x3d675d94	0.056485727
144	0xbc15e570	-0.00914894
145	0xbe063fa5	-0.13110216
146	0xbc836da0	-0.016043484
147	0xbc082073	-0.008308518
148	0x3b6df6ab	0.0036310356
149	0xbc82e69e	-0.015979107
150	0xbcc3db12	-0.023908172
151	0xbd3b4156	-0.045716606
152	0xbcc9b20d	-0.024621034
153	0xbda6e187	-0.08148485
154	0xbd50a44d	-0.05093794
155	0x3d28f046	0.041244768
156	0x3c61457a	0.013749475
157	0xbe60ab8d	-0.21940441
158	0x3d71854e	0.05896502
159	0xbda39c2d	-0.079887725
160	0xbd7b96bf	-0.06142306
161	0xbb9a2632	-0.0047042603
162	0xbd84f140	-0.06491327
163	0x39d189a8	0.00039966148
164	0xb9027d55	-0.00012444456
165	0x3d7fa6d3	0.062414955
166	0x3a26f8e6	0.0006369486
167	0xbd833de3	-0.06408288
168	0x3d0fc49e	0.035099618
169	0xbdc337fc	-0.095321625
170	0x38a0c7bf	7.6666e-05
171	0x3e09ad0d	0.1344492
172	0xbc26627d	-0.010155317
173	0xbde0364b	-0.109478556
174	0x3d4cd072	0.050003476
175	0xbbeed310	-0.007288344
176	0x3e0abf26	0.1354948
177	0x3d0dfe13	0.034666132
178	0xbd7359d1	-0.059411827
179	0xbdceb6fa	-0.10093494
180	0xbe22a954	-0.15884906
181	0x3e90b45b	0.282626
182	0x3a47eadc	0.00076262443
183	0xbdde2ccf	-0.1084839
184	0x3cd1a9fb	0.025593748
185	0xbb8355f0	-0.0040080473
186	0x3d2f799e	0.042840593
187	0x3d0c3d54	0.034238175
188	0x3c5a78a8	0.013334431
189	0x3dbc0e5f	0.091824286
190	0x3d474dde	0.048658244
191	0x3e407ab9	0.18796815
192	0xbe19f06d	-0.15033121
193	0x3d05c26f	0.03265613
194	0xbe0bf4ef	-0.13667654
195	0x3de33e61	0.11095882
196	0xbb91ea4d	-0.0044529797
197	0x3d9bdee9	0.07610876
198	0x3d17fa9d	0.037104238
199	0x3c23c5d5	0.009995897
200	0x3c83dddd	0.016097004
201	0xbc474de6	-0.0121645685
202	0x3d541a69	0.051783
203	0x3c41cb1a	0.011828208
204	0xbd9962e4	-0.07489565
205	0xbe4532f6	-0.19257721
206	0xbe0e07fa	-0.1387023
207	0xbcf93133	-0.030418968
208	0xbe05542e	-0.13020393
209	0x3d43679a	0.047706224
210	0xbc4f89e3	-0.012667152
211	0xbddf9d8b	-0.10918721
212	0xbdc664ad	-0.09687171
213	0x3ca9a7ea	0.02070995
214	0xbdb9d78a	-0.09074314
215	0x3c1102b0	0.008850738
216	0x3e42277e	0.18960378
217	0xbd0f363c	-0.03496383
218	0xbac3d16b	-0.0014939731
219	0x3df543a6	0.119757935
220	0x3a49ea3f	0.0007702447
221	0xbe86ccc1	-0.2632809
222	0x3d8c4c71	0.068505175
223	0xbd946c18	-0.0724718
224	0x3d414efa	0.04719446
225	0x3da0140d	0.078163244
226	0x3de7cc07	0.11318212
227	0x3cb9f01b	0.022697499
228	0x3de1da6e	0.1102799
229	0x3ac34f00	0.0014900863
230	0xbb570a6c	-0.0032812608
231	0x3dfec7c5	0.12440447
232	0x3d20f9d7	0.039300766
233	0x3e4ed2dc	0.20197624
234	0x3d3e00f6	0.046387635
235	0x3e397466	0.18110809
236	0x3d25acbe	0.040447943
237	0xbd826c9b	-0.06368371
238	0xbd2b0934	-0.041756824
239	0xbbd4b457	-0.0064912247
240	0xbdb9e3f7	-0.09076684
241	0x3d8275df	0.063701384
242	0x3d8a1dff	0.067440026
243	0xbda742fa	-0.08167072
244	0xbda792fb	-0.08182331
245	0x3e6de499	0.23231734
246	0xbd5f6fec	-0.054550096
247	0xbe2aee34	-0.1669243
248	0x3d1d80bb	0.038452845
249	0xbc44353d	-0.011975584
250	0xbb16bc60	-0.0023000464
251	0x3cc53e73	0.02407763
252	0xbd073ac8	-0.033015043
253	0x3d56f1e2	0.05247677
254	0xbcd81a6e	-0.02637979
255	0xbe388272	-0.18018511

arith.constant7 f4 [64]
0	0x3eb6bb02	0.3568955
1	0x3e8a9db6	0.2707345
2	0xbe22f45d	-0.1591353
3	0x3da5f858	0.081040084
4	0x3e17d1d0	0.14826131
5	0x3d0cf63f	0.034414526
6	0xbe7b2fdd	-0.24529977
7	0xbe354990	-0.17703843
8	0xbeeb9cc6	-0.46018046
9	0xbee5f340	-0.44912148
10	0xbed74e72	-0.42052037
11	0x3d5dde1d	0.0541669
12	0x3f13fbed	0.57806283
13	0x3eecd25a	0.46254236
14	0xbe69e2e5	-0.2284046
15	0x3c9ef86a	0.019405562
16	0x3ee93421	0.45547584
17	0xbe39e351	-0.1815312
18	0xbc5f3fc7	-0.013626046
19	0xbe8e4cf2	-0.2779308
20	0xbe22d369	-0.15900959
21	0xbe59b7b8	-0.2126149
22	0xbe56c0a8	-0.2097193
23	0xbdaede50	-0.085384965
24	0xbd5e56ba	-0.054281928
25	0xbf1f9225	-0.62332374
26	0xbd2cb390	-0.04216343
27	0xbdbf8750	-0.09351981
28	0x3dd543b9	0.10413308
29	0xbf50790b	-0.81434697
30	0x3ed41198	0.41419673
31	0x3ea2cc08	0.31796288
32	0xbe864d0f	-0.26230666
33	0xbe3bf47d	-0.18354984
34	0x3f220872	0.63294137
35	0x3ce45e9b	0.027877143
36	0xbdb539bc	-0.088489026
37	0x3e9b0878	0.302799
38	0xbdb437b6	-0.087996885
39	0x3e8827ff	0.26593015
40	0xbeaeb068	-0.34118962
41	0xbe245e0a	-0.16051498
42	0xbe98dd56	-0.29856366
43	0xbe0bb0f9	-0.13641728
44	0x3e3b65a8	0.18300498
45	0x3ec264cf	0.37967536
46	0xbe13eac7	-0.14445029
47	0x3c1f09b2	0.009706901
48	0xbe893d74	-0.26804698
49	0xbe6e027e	-0.23243138
50	0xbe07de03	-0.13268284
51	0xbf6d46cb	-0.92686146
52	0x3eb49f4d	0.35277787
53	0xbdedb439	-0.1160664
54	0xbe26260a	-0.16225448
55	0x3ef414e7	0.47672197
56	0xbcfa5991	-0.030560287
57	0x3c9581c0	0.018250346
58	0xbe7e7d90	-0.24852586
59	0x3ed8fa13	0.4237829
60	0xbd329481	-0.043598656
61	0x3ef32395	0.47488084
62	0x3ed23598	0.41056514
63	0xbe2ae0ac	-0.16687268

arith.constant8 f4 [128]
0	0x3afc4b73	0.001924856
1	0xbe633600	-0.22188568
2	0xbd3eab91	-0.046550337
3	0xbdb5bb0d	-0.08873568
4	0xbd801e4e	-0.0625578
5	0xbe06968a	-0.13143364
6	0xbe6068cc	-0.21914977
7	0xbda9b5b7	-0.082866125
8	0xbd2bd48b	-0.041950744
9	0xbdaee83d	-0.0854039
10	0x3e3e80d8	0.18603837
11	0xbc48a7ae	-0.012247009
12	0xbe69f356	-0.22846732
13	0xbe34bdd3	-0.17650537
14	0xbe424199	-0.18970336
15	0xbe55bb06	-0.20872125
16	0xbd39f678	-0.045401067
17	0xbe9454e2	-0.2897101
18	0xbd8c5079	-0.068512864
19	0xbbc1c792	-0.005913683
20	0xbd31b2bc	-0.043383345
21	0xbe95254e	-0.29130024
22	0x3c1d0190	0.009582892
23	0xbd526c3e	-0.05137276
24	0x3e5dcdf9	0.21660604
25	0xbd8f312f	-0.06991803
26	0xba32ca4a	-0.00068203046
27	0xbe19b020	-0.15008593
28	0xbc81fb10	-0.015866786
29	0xbdf8e42d	-0.12152896
30	0xbd4b09a0	-0.049569726
31	0xbca47d1a	-0.020079184
32	0x3e8432f1	0.25820115
33	0xbd8542be	-0.06506871
34	0xbd097e9f	-0.03356802
35	0xbd645b20	-0.055750966
36	0xbe167efe	-0.14696881
37	0x3c450027	0.012023962
38	0xbd0c8aca	-0.034312047
39	0x3afaddf0	0.0019139629
40	0xbd4db24f	-0.050218876
41	0x3ebd32f5	0.3695294
42	0xbd561f4e	-0.05227595
43	0xbcab4811	-0.020908387
44	0xbd367244	-0.044542566
45	0xbcb96536	-0.022631269
46	0xbe7d3488	-0.2472707
47	0x3c0ebd74	0.008712161
48	0xbe1c9533	-0.1529129
49	0xbd46ae6a	-0.048506178
50	0xbea27719	-0.3173149
51	0xbd17c002	-0.037048347
52	0x3ec383fc	0.38186634
53	0xbe6c1c5d	-0.23057695
54	0xbd150846	-0.036384843
55	0x3d4cc115	0.049988825
56	0xbe2da327	-0.16956769
57	0xbc91dd80	-0.017805815
58	0x3effc77f	0.4995689
59	0xbe1cdaad	-0.15317793
60	0x3b8eba03	0.0043556704
61	0x3cecc42c	0.028902136
62	0xbeaf9bec	-0.34298646
63	0xbd5abaf7	-0.05340096
64	0xbd326bbd	-0.04355978
65	0xbe262814	-0.16226226
66	0xbd94b4ca	-0.07261045
67	0xbe0c5094	-0.13702613
68	0xbd5dc60b	-0.054143947
69	0x3e81b20f	0.2533116
70	0xbd96b419	-0.0735857
71	0x3e86cb7c	0.2632712
72	0xbcf8aa82	-0.030354742
73	0xbdbc0505	-0.09180645
74	0xbe6ac2a6	-0.22925815
75	0xbd7f2ec2	-0.06230045
76	0x3e239623	0.15975241
77	0x3db9510e	0.09048663
78	0xbd9e4641	-0.077282436
79	0xbe379c5c	-0.1793074
80	0x3dcaba57	0.09898823
81	0xbd0077e1	-0.031364325
82	0xbd370eb7	-0.044691768
83	0xbe884d3e	-0.2662143
84	0xbf1514f9	-0.58235127
85	0x3eb33970	0.3500476
86	0xbd7c94b6	-0.06166526
87	0xbd415f31	-0.047209922
88	0xbea9698b	-0.33088335
89	0xbd8f1bdd	-0.069877364
90	0xbcc90525	-0.024538586
91	0xbdfe2902	-0.12410165
92	0xbe16d4f3	-0.14729671
93	0xbcffd061	-0.031227292
94	0xbcef2cd8	-0.029196188
95	0x3dd9367b	0.106060944
96	0xbd261307	-0.04054549
97	0xbd43e8b8	-0.04782936
98	0x3d17df3d	0.03707813
99	0xbe4f776f	-0.20260404
100	0x3ecb12ba	0.39662725
101	0xbe2cea86	-0.16886339
102	0xbd0bb0e6	-0.03410425
103	0xbd20a8f4	-0.039223626
104	0xbd9271c3	-0.071506046
105	0xbd22fdb7	-0.039792743
106	0xbdf58c9a	-0.11989708
107	0x3ec59649	0.3859122
108	0xbce4de70	-0.027938098
109	0x3d172ec8	0.03690985
110	0xbd26436d	-0.040591646
111	0xbd869fde	-0.06573461
112	0xbe57f26d	-0.21088572
113	0xbce4ecf6	-0.027945023
114	0xbe197cae	-0.14988968
115	0xbe3aa143	-0.18225579
116	0xbd3092b1	-0.043108646
117	0xbd9df019	-0.077118106
118	0xbe1b9375	-0.15192969
119	0xbd33a0d2	-0.043854542
120	0xbe3b7215	-0.18305238
121	0x3dd46688	0.10371119
122	0xbe82f99f	-0.2558107
123	0xbd635488	-0.055500537
124	0xbce97ab1	-0.028500887
125	0xbd73daa7	-0.059534695
126	0xbe6fd409	-0.23420729
127	0xbd7f31f4	-0.0623035

arith.constant9 f4 [64]
0	0xbe31d386	-0.17365846
1	0xbb979a8d	-0.004626578
2	0xbd481eda	-0.048857547
3	0xbdf67db5	-0.120356955
4	0x3cfa7804	0.030574806
5	0xbe25e1ec	-0.16199464
6	0xbd5b5af4	-0.053553537
7	0xbb6ffb32	-0.003661823
8	0xbe467557	-0.19380699
9	0x3d3eab31	0.04654998
10	0xbd8d3181	-0.06894208
11	0xbd484182	-0.048890598
12	0xbd4067ce	-0.046973996
13	0xbe9f574c	-0.3112129
14	0x3d025345	0.031817693
15	0xbd4dec54	-0.05027421
16	0xbd6a687a	-0.057228543
17	0xbeb7944e	-0.35855335
18	0xbd520cdd	-0.0512818
19	0xbe6f6128	-0.23376906
20	0xbd9d8d6d	-0.076929905
21	0xbd2f1743	-0.042746793
22	0xbd811c88	-0.0630427
23	0xbdd15f0e	-0.10223208
24	0xbd0440f9	-0.032288525
25	0xbd406fde	-0.046981685
26	0xbe04eb6e	-0.12980434
27	0xbda7f02e	-0.082001075
28	0x3b1034f9	0.002200423
29	0xbd4ef26b	-0.050524157
30	0x3b4ea8aa	0.0031533637
31	0xbd525188	-0.051347286
32	0x3dd4ee3c	0.10397002
33	0xbe210f14	-0.15728408
34	0xbbe34c66	-0.0069365976
35	0xbe228d95	-0.15874322
36	0xbdd005c4	-0.1015735
37	0x3dfc4c74	0.1231927
38	0xbda6fa9a	-0.08153267
39	0xbd782f9a	-0.06059227
40	0x3d563dec	0.052305147
41	0xbdb20798	-0.08692855
42	0xbdcc4427	-0.099739365
43	0xbda4d8cf	-0.080491655
44	0xbd91fe82	-0.07128622
45	0xbda8fefc	-0.082517594
46	0xbe6c959f	-0.23103951
47	0xbe076bc7	-0.13224708
48	0xbe10665d	-0.14101548
49	0xbcfe7d28	-0.031065539
50	0xbe80ab13	-0.2513052
51	0xbe096af3	-0.13419704
52	0xbe7b25f2	-0.24526194
53	0xbd65d809	-0.05611423
54	0xbc4ef1c4	-0.012630884
55	0xbc80a9bf	-0.015705941
56	0x3d6f532a	0.05842892
57	0xbd051fc9	-0.032501016
58	0xbe77cc4f	-0.24199031
59	0xbd76d79a	-0.060264207
60	0xbd52b28d	-0.05143981
61	0xbe58e96c	-0.21182793
62	0xbe626bc2	-0.22111419
63	0xbdcc6b71	-0.0998143

arith.constant10 f4 [32]
0	0xbda97288	-0.08273798
1	0xbd591f76	-0.05300852
2	0x3cf50e8d	0.029914165
3	0xbe9663ac	-0.2937292
4	0xbd3a7c9e	-0.045529
5	0xbdc5ec5b	-0.09664222
6	0xbd982871	-0.074295886
7	0xbd672cc7	-0.056439187
8	0xbcb0fde6	-0.021605443
9	0xbe1d4b86	-0.15360841
10	0xbc805d39	-0.015669452
11	0xbdccd774	-0.10002032
12	0x3c4307ec	0.011903744
13	0xbdffb6f2	-0.12486066
14	0x3cc14b1e	0.023595389
15	0xbdfc2a8a	-0.12312801
16	0xbe053c43	-0.1301127
17	0xbdefe513	-0.11713614
18	0xbb323aa1	-0.002719559
19	0xbe41a698	-0.18911207
20	0xbe742e5a	-0.23845807
21	0xbe505651	-0.20345427
22	0xbd422d71	-0.047406618
23	0xbd9a5fea	-0.075378254
24	0xbd257c95	-0.040402014
25	0xbe130a74	-0.14359456
26	0xbced0072	-0.028930876
27	0xbd07e73b	-0.033179503
28	0xbdbeb220	-0.093113184
29	0xbded2d67	-0.115809254
30	0xbd019832	-0.031639285
31	0xbd8389eb	-0.0642279

arith.constant11 f4 [8]
0	0x3e4ad030	0.1980598
1	0x3e4965d7	0.19667755
2	0x3e387de4	0.18016773
3	0x3e6a783b	0.22897427
4	0x3e5c3e27	0.21508084
5	0x3e8a6249	0.2702811
6	0x3e7560d0	0.23962712
7	0x3e5a8863	0.2134109

tfl.pseudo_qconst i1 [64, 3, 3, 32]
0	0x26	38
1	0x2a	42
2	0x0c	12
3	0x23	35
4	0xd0	-48
5	0x00	0
6	0x17	23
7	0x11	17
8	0x53	83
9	0x15	21
10	0x00	0
11	0x1a	26
12	0x09	9
13	0x20	32
14	0xe3	-29
15	0x1a	26
16	0x1d	29
17	0xf9	-7
18	0xc3	-61
19	0x04	4
20	0xdd	-35
21	0x15	21
22	0xf3	-13
23	0x25	37
24	0x0d	13
25	0x1b	27
26	0x0d	13
27	0xef	-17
28	0x0d	13
29	0x28	40
30	0x34	52
31	0x32	50
32	0x0c	12
33	0x0f	15
34	0xb8	-72
35	0x2a	42
36	0x1f	31
37	0xe7	-25
38	0x4a	74
39	0x3d	61
40	0x2d	45
41	0x26	38
42	0xd6	-42
43	0x4b	75
44	0xf6	-10
45	0x2e	46
46	0xed	-19
47	0x13	19
48	0x29	41
49	0x2b	43
50	0xce	-50
51	0x25	37
52	0x08	8
53	0x03	3
54	0x06	6
55	0x23	35
56	0x47	71
57	0x22	34
58	0x45	69
59	0xc9	-55
60	0xf3	-13
61	0x26	38
62	0x52	82
63	0x3b	59
64	0xfc	-4
65	0x15	21
66	0xe3	-29
67	0x22	34
68	0x27	39
69	0xd5	-43
70	0x27	39
71	0x24	36
72	0x19	25
73	0xf4	-12
74	0xf1	-15
75	0x08	8
76	0xef	-17
77	0x2d	45
78	0xc8	-56
79	0x03	3
80	0x23	35
81	0xfd	-3
82	0xdd	-35
83	0x14	20
84	0x12	18
85	0x1a	26
86	0x02	2
87	0x12	18
88	0x1e	30
89	0x01	1
90	0x0d	13
91	0xfe	-2
92	0x1e	30
93	0x01	1
94	0x31	49
95	0x12	18
96	0xf7	-9
97	0xbd	-67
98	0xe8	-24
99	0x0b	11
100	0xff	-1
101	0x20	32
102	0xff	-1
103	0xff	-1
104	0xde	-34
105	0xca	-54
106	0x28	40
107	0xdb	-37
108	0x22	34
109	0xd2	-46
110	0xe0	-32
111	0xe2	-30
112	0xfc	-4
113	0xf5	-11
114	0x15	21
115	0x03	3
116	0xf4	-12
117	0xf6	-10
118	0xf0	-16
119	0x0c	12
120	0xd9	-39
121	0xcd	-51
122	0x14	20
123	0x16	22
124	0x18	24
125	0xed	-19
126	0xfe	-2
127	0xfe	-2
128	0xf7	-9
129	0xdf	-33
130	0xcb	-53
131	0x18	24
132	0xea	-22
133	0xfe	-2
134	0x0a	10
135	0x13	19
136	0xe0	-32
137	0xf7	-9
138	0xe6	-26
139	0x3f	63
140	0xef	-17
141	0x08	8
142	0xcf	-49
143	0xd1	-47
144	0xdc	-36
145	0x09	9
146	0x1e	30
147	0xb5	-75
148	0x26	38
149	0xea	-22
150	0xcb	-53
151	0xfc	-4
152	0xe7	-25
153	0xd0	-48
154	0x06	6
155	0x01	1
156	0xf5	-11
157	0x20	32
158	0xef	-17
159	0x13	19
160	0xed	-19
161	0xdb	-37
162	0xe6	-26
163	0x08	8
164	0xd6	-42
165	0x09	9
166	0xd5	-43
167	0x27	39
168	0x0d	13
169	0x03	3
170	0xc1	-63
171	0x43	67
172	0xf4	-12
173	0x0f	15
174	0xd8	-40
175	0xc0	-64
176	0xf3	-13
177	0xe6	-26
178	0xe4	-28
179	0xf2	-14
180	0xc3	-61
181	0x28	40
182	0x51	81
183	0xe7	-25
184	0xff	-1
185	0xd0	-48
186	0xd9	-39
187	0x01	1
188	0xb9	-71
189	0xdd	-35
190	0xfb	-5
191	0xf2	-14
192	0xe0	-32
193	0xb7	-73
194	0x13	19
195	0x3e	62
196	0xcb	-53
197	0x03	3
198	0x97	-105
199	0xa8	-88
200	0xc0	-64
201	0x89	-119
202	0xf5	-11
203	0xcd	-51
204	0xe3	-29
205	0xb2	-78
206	0xe2	-30
207	0xe1	-31
208	0xbf	-65
209	0xf5	-11
210	0x14	20
211	0xe2	-30
212	0xc1	-63
213	0xbf	-65
214	0xe1	-31
215	0xe9	-23
216	0x96	-106
217	0xfc	-4
218	0xb1	-79
219	0x24	36
220	0xf0	-16
221	0xc5	-59
222	0xb8	-72
223	0x9f	-97
224	0x1e	30
225	0xaf	-81
226	0xf3	-13
227	0xcf	-49
228	0x29	41
229	0x0e	14
230	0xc5	-59
231	0x81	-127
232	0xd7	-41
233	0xb0	-80
234	0xcf	-49
235	0xe0	-32
236	0xf6	-10
237	0xf3	-13
238	0x06	6
239	0x06	6
240	0xf0	-16
241	0xc2	-62
242	0x22	34
243	0x22	34
244	0xbb	-69
245	0xce	-50
246	0xec	-20
247	0xf2	-14
248	0xa8	-88
249	0x08	8
250	0xfe	-2
251	0x07	7
252	0xf9	-7
253	0xea	-22
254	0x94	-108
255	0xd6	-42

tfl.pseudo_qconst1 i1 [32, 3, 3, 16]
0	0xc8	-56
1	0x32	50
2	0xea	-22
3	0x2a	42
4	0x29	41
5	0x0d	13
6	0x35	53
7	0x0c	12
8	0x00	0
9	0xd7	-41
10	0x07	7
11	0x00	0
12	0xa2	-94
13	0x04	4
14	0x0d	13
15	0xbd	-67
16	0xcd	-51
17	0x0c	12
18	0x11	17
19	0x33	51
20	0xdf	-33
21	0x0f	15
22	0x24	36
23	0x0a	10
24	0x39	57
25	0xef	-17
26	0x0b	11
27	0xe3	-29
28	0xdd	-35
29	0x04	4
30	0xdb	-37
31	0xf3	-13
32	0x06	6
33	0x24	36
34	0x1b	27
35	0x0d	13
36	0xf5	-11
37	0x00	0
38	0xe4	-28
39	0x05	5
40	0xf9	-7
41	0xfb	-5
42	0x12	18
43	0xfb	-5
44	0x2f	47
45	0x15	21
46	0xe9	-23
47	0x1e	30
48	0xf5	-11
49	0xf5	-11
50	0xe9	-23
51	0x18	24
52	0x09	9
53	0xa6	-90
54	0x22	34
55	0xf7	-9
56	0xd0	-48
57	0xbd	-67
58	0xd0	-48
59	0xc5	-59
60	0xf0	-16
61	0x24	36
62	0x98	-104
63	0x10	16
64	0x56	86
65	0x20	32
66	0xd9	-39
67	0x41	65
68	0xed	-19
69	0x35	53
70	0xff	-1
71	0xed	-19
72	0x1a	26
73	0xe0	-32
74	0x08	8
75	0x67	103
76	0xf0	-16
77	0x10	16
78	0x4f	79
79	0x8c	-116
80	0x21	33
81	0x26	38
82	0xfa	-6
83	0x2a	42
84	0x2f	47
85	0x37	55
86	0x1e	30
87	0xf8	-8
88	0xf5	-11
89	0x3d	61
90	0x06	6
91	0xf2	-14
92	0xf3	-13
93	0xfd	-3
94	0x35	53
95	0x0a	10
96	0xd6	-42
97	0xe1	-31
98	0x1b	27
99	0x2c	44
100	0xff	-1
101	0x81	-127
102	0xf3	-13
103	0xfa	-6
104	0xd8	-40
105	0xf1	-15
106	0xc5	-59
107	0xe6	-26
108	0xe5	-27
109	0x21	33
110	0x8c	-116
111	0xf3	-13
112	0x19	25
113	0x22	34
114	0xe0	-32
115	0x28	40
116	0x10	16
117	0x09	9
118	0x85	-123
119	0xfd	-3
120	0xcd	-51
121	0xeb	-21
122	0xcc	-52
123	0x2f	47
124	0xf0	-16
125	0x0b	11
126	0x12	18
127	0x8b	-117
128	0x05	5
129	0x29	41
130	0xf6	-10
131	0x07	7
132	0x36	54
133	0x4d	77
134	0x18	24
135	0xff	-1
136	0x09	9
137	0x13	19
138	0x1d	29
139	0x22	34
140	0x05	5
141	0xf1	-15
142	0x31	49
143	0xd0	-48
144	0xe7	-25
145	0x1f	31
146	0x27	39
147	0x0e	14
148	0xfa	-6
149	0xe4	-28
150	0x3e	62
151	0xfb	-5
152	0xfe	-2
153	0xff	-1
154	0x06	6
155	0x01	1
156	0x48	72
157	0x13	19
158	0xff	-1
159	0xd7	-41
160	0xf2	-14
161	0x0c	12
162	0x0e	14
163	0x27	39
164	0x08	8
165	0xf5	-11
166	0x3d	61
167	0xf7	-9
168	0xd8	-40
169	0x1b	27
170	0x00	0
171	0xb3	-77
172	0xc1	-63
173	0x0c	12
174	0xfd	-3
175	0x10	16
176	0x30	48
177	0xe4	-28
178	0xf1	-15
179	0xec	-20
180	0xbe	-66
181	0xdb	-37
182	0x1e	30
183	0x01	1
184	0xe1	-31
185	0xd1	-47
186	0x03	3
187	0x2e	46
188	0x05	5
189	0xe9	-23
190	0xe0	-32
191	0x1f	31
192	0x79	121
193	0x14	20
194	0xdc	-36
195	0x46	70
196	0xcc	-52
197	0x10	16
198	0x8e	-114
199	0xf8	-8
200	0xfe	-2
201	0x1a	26
202	0xf2	-14
203	0x76	118
204	0xe4	-28
205	0x18	24
206	0xf5	-11
207	0x1a	26
208	0x98	-104
209	0xf5	-11
210	0x0e	14
211	0x12	18
212	0xfd	-3
213	0x27	39
214	0x21	33
215	0x05	5
216	0x3f	63
217	0xe9	-23
218	0xdc	-36
219	0x9d	-99
220	0xe5	-27
221	0x1e	30
222	0xee	-18
223	0xa2	-94
224	0xd8	-40
225	0x20	32
226	0xfb	-5
227	0x00	0
228	0xf9	-7
229	0xf5	-11
230	0xb8	-72
231	0x16	22
232	0xdf	-33
233	0x01	1
234	0x05	5
235	0xe6	-26
236	0xc1	-63
237	0xf6	-10
238	0xdb	-37
239	0x31	49
240	0x81	-127
241	0x2a	42
242	0x0d	13
243	0x21	33
244	0xc1	-63
245	0x49	73
246	0xfa	-6
247	0x11	17
248	0x1b	27
249	0xc2	-62
250	0x0e	14
251	0xf9	-7
252	0xc3	-61
253	0x38	56
254	0x2c	44
255	0x17	23

tfl.pseudo_qconst2 i1 [64, 128]
0	0x1c	28
1	0xe5	-27
2	0x0f	15
3	0xdb	-37
4	0xf8	-8
5	0x37	55
6	0xcb	-53
7	0x02	2
8	0x00	0
9	0xf9	-7
10	0x30	48
11	0x8c	-116
12	0xd0	-48
13	0xf4	-12
14	0xd3	-45
15	0x18	24
16	0xf2	-14
17	0x10	16
18	0xa9	-87
19	0x4c	76
20	0xff	-1
21	0xd6	-42
22	0x1d	29
23	0xfc	-4
24	0x25	37
25	0xec	-20
26	0x1d	29
27	0xe4	-28
28	0xd9	-39
29	0x01	1
30	0xe0	-32
31	0x1d	29
32	0x14	20
33	0x1a	26
34	0x1b	27
35	0xf8	-8
36	0x3f	63
37	0xf7	-9
38	0x18	24
39	0xd2	-46
40	0xe8	-24
41	0x21	33
42	0x1d	29
43	0xe9	-23
44	0xea	-22
45	0xf9	-7
46	0xd5	-43
47	0xfe	-2
48	0xf5	-11
49	0xf8	-8
50	0xc2	-62
51	0x09	9
52	0x0b	11
53	0xc8	-56
54	0x0a	10
55	0x11	17
56	0xb6	-74
57	0x02	2
58	0x0a	10
59	0xca	-54
60	0x04	4
61	0x05	5
62	0xd9	-39
63	0xfc	-4
64	0x18	24
65	0x1d	29
66	0xe8	-24
67	0xdd	-35
68	0x1d	29
69	0x17	23
70	0xf9	-7
71	0x23	35
72	0x81	-127
73	0x0d	13
74	0x1c	28
75	0xfd	-3
76	0x2f	47
77	0xf5	-11
78	0x0a	10
79	0xe4	-28
80	0x07	7
81	0xf5	-11
82	0xe8	-24
83	0xd5	-43
84	0x0e	14
85	0x04	4
86	0xf6	-10
87	0x01	1
88	0x0b	11
89	0x3a	58
90	0x1b	27
91	0x06	6
92	0xcc	-52
93	0xb8	-72
94	0x3f	63
95	0xeb	-21
96	0xe0	-32
97	0x14	20
98	0x17	23
99	0xcf	-49
100	0x0b	11
101	0xb9	-71
102	0x18	24
103	0x0c	12
104	0xce	-50
105	0x18	24
106	0x0e	14
107	0x0e	14
108	0x14	20
109	0x20	32
110	0x0c	12
111	0xd3	-45
112	0xd0	-48
113	0x25	37
114	0xab	-85
115	0xf4	-12
116	0xda	-38
117	0x08	8
118	0xf3	-13
119	0x11	17
120	0xbb	-69
121	0x14	20
122	0xdb	-37
123	0x19	25
124	0x22	34
125	0x0b	11
126	0xe4	-28
127	0x0d	13
128	0x2f	47
129	0xf3	-13
130	0xea	-22
131	0xee	-18
132	0xf7	-9
133	0x30	48
134	0xc8	-56
135	0xfc	-4
136	0x14	20
137	0xf5	-11
138	0x54	84
139	0x81	-127
140	0xcd	-51
141	0xfb	-5
142	0xec	-20
143	0x1f	31
144	0x06	6
145	0xfc	-4
146	0x97	-105
147	0x5b	91
148	0xdb	-37
149	0x01	1
150	0x02	2
151	0xe3	-29
152	0x26	38
153	0x03	3
154	0x28	40
155	0xe3	-29
156	0xef	-17
157	0x09	9
158	0xd7	-41
159	0x0d	13
160	0x0c	12
161	0xe5	-27
162	0x23	35
163	0x0d	13
164	0x3a	58
165	0x03	3
166	0x14	20
167	0xe2	-30
168	0x2f	47
169	0x01	1
170	0x17	23
171	0x1d	29
172	0xf2	-14
173	0xe7	-25
174	0xc6	-58
175	0x0d	13
176	0xe5	-27
177	0xe1	-31
178	0xc8	-56
179	0x10	16
180	0x0a	10
181	0xd0	-48
182	0xfe	-2
183	0xfd	-3
184	0xce	-50
185	0x0a	10
186	0x0e	14
187	0xe6	-26
188	0xfc	-4
189	0x0d	13
190	0xbe	-66
191	0xe2	-30
192	0xfb	-5
193	0x02	2
194	0xe1	-31
195	0xd1	-47
196	0x13	19
197	0x31	49
198	0xe4	-28
199	0x1e	30
200	0x9f	-97
201	0x26	38
202	0x29	41
203	0xf0	-16
204	0x31	49
205	0xf2	-14
206	0x13	19
207	0xe0	-32
208	0x21	33
209	0xeb	-21
210	0xf9	-7
211	0xdc	-36
212	0x21	33
213	0xf7	-9
214	0xf1	-15
215	0xe9	-23
216	0x09	9
217	0x58	88
218	0x27	39
219	0x10	16
220	0xdd	-35
221	0xb9	-71
222	0x45	69
223	0x00	0
224	0x08	8
225	0x01	1
226	0x22	34
227	0xd8	-40
228	0x18	24
229	0xda	-38
230	0xf8	-8
231	0xea	-22
232	0xf2	-14
233	0xf2	-14
234	0xfc	-4
235	0x05	5
236	0x0c	12
237	0x19	25
238	0xee	-18
239	0xcf	-49
240	0xd9	-39
241	0x05	5
242	0xaf	-81
243	0xff	-1
244	0x13	19
245	0xfd	-3
246	0xed	-19
247	0xf0	-16
248	0xb5	-75
249	0xf6	-10
250	0xd5	-43
251	0x1f	31
252	0x09	9
253	0x13	19
254	0xca	-54
255	0xe2	-30

tfl.pseudo_qconst3 i1 [128, 2304]
0	0x03	3
1	0x25	37
2	0xfb	-5
3	0x24	36
4	0xf4	-12
5	0xe9	-23
6	0x00	0
7	0xfc	-4
8	0xdd	-35
9	0xf7	-9
10	0x09	9
11	0xd1	-47
12	0x09	9
13	0x1d	29
14	0xef	-17
15	0x0a	10
16	0xff	-1
17	0x1b	27
18	0xbb	-69
19	0x15	21
20	0x03	3
21	0x00	0
22	0x1d	29
23	0x05	5
24	0x02	2
25	0x02	2
26	0x12	18
27	0xf4	-12
28	0x06	6
29	0x07	7
30	0x04	4
31	0x13	19
32	0x00	0
33	0xfe	-2
34	0xcc	-52
35	0x0a	10
36	0x30	48
37	0xd2	-46
38	0xeb	-21
39	0xe5	-27
40	0xe6	-26
41	0xf9	-7
42	0xf7	-9
43	0xef	-17
44	0x26	38
45	0xf5	-11
46	0xf9	-7
47	0x02	2
48	0xce	-50
49	0x01	1
50	0x0e	14
51	0x2c	44
52	0xe9	-23
53	0x03	3
54	0x08	8
55	0xf2	-14
56	0xb9	-71
57	0x00	0
58	0xfd	-3
59	0xaf	-81
60	0x29	41
61	0x06	6
62	0x23	35
63	0x11	17
64	0x21	33
65	0x08	8
66	0xf9	-7
67	0x12	18
68	0x28	40
69	0xff	-1
70	0xfc	-4
71	0xe6	-26
72	0xcc	-52
73	0xf7	-9
74	0xfb	-5
75	0x3d	61
76	0x07	7
77	0x2e	46
78	0xf4	-12
79	0x00	0
80	0x06	6
81	0x14	20
82	0xf4	-12
83	0x30	48
84	0x04	4
85	0xde	-34
86	0x39	57
87	0x08	8
88	0x06	6
89	0x05	5
90	0xf0	-16
91	0xea	-22
92	0xe1	-31
93	0x07	7
94	0x28	40
95	0xea	-22
96	0x19	25
97	0x11	17
98	0x05	5
99	0x0a	10
100	0x1d	29
101	0xca	-54
102	0xfc	-4
103	0xf0	-16
104	0xe0	-32
105	0x32	50
106	0xff	-1
107	0xf5	-11
108	0x37	55
109	0x06	6
110	0x00	0
111	0x53	83
112	0xbc	-68
113	0xfb	-5
114	0x18	24
115	0x1e	30
116	0x2d	45
117	0x06	6
118	0x5e	94
119	0x17	23
120	0xb1	-79
121	0xf9	-7
122	0x16	22
123	0xfe	-2
124	0xfc	-4
125	0x0a	10
126	0x35	53
127	0xf8	-8
128	0x1e	30
129	0x1f	31
130	0x02	2
131	0xf8	-8
132	0x2a	42
133	0x0c	12
134	0xfb	-5
135	0x07	7
136	0x27	39
137	0xdc	-36
138	0x07	7
139	0x28	40
140	0x00	0
141	0xf0	-16
142	0xda	-38
143	0x0e	14
144	0xfc	-4
145	0xf2	-14
146	0x03	3
147	0xe3	-29
148	0xfa	-6
149	0xf3	-13
150	0x2c	44
151	0x13	19
152	0x05	5
153	0xff	-1
154	0x00	0
155	0xf8	-8
156	0x05	5
157	0xf8	-8
158	0x29	41
159	0xd9	-39
160	0xf2	-14
161	0x03	3
162	0x15	21
163	0x14	20
164	0xf4	-12
165	0x02	2
166	0xe7	-25
167	0x08	8
168	0xc3	-61
169	0x1b	27
170	0x06	6
171	0xfb	-5
172	0x14	20
173	0xeb	-21
174	0x00	0
175	0xef	-17
176	0xd6	-42
177	0x04	4
178	0xf8	-8
179	0xf0	-16
180	0xff	-1
181	0xfd	-3
182	0x36	54
183	0x23	35
184	0x0e	14
185	0x02	2
186	0xfd	-3
187	0x14	20
188	0xec	-20
189	0xfb	-5
190	0xe0	-32
191	0xd3	-45
192	0x06	6
193	0x09	9
194	0xf9	-7
195	0x32	50
196	0xfe	-2
197	0xec	-20
198	0xf9	-7
199	0xfe	-2
200	0xf3	-13
201	0xf1	-15
202	0xf8	-8
203	0x16	22
204	0x06	6
205	0xe9	-23
206	0xdc	-36
207	0x13	19
208	0xf9	-7
209	0xf1	-15
210	0x03	3
211	0x10	16
212	0xfc	-4
213	0x01	1
214	0xbf	-65
215	0x28	40
216	0x02	2
217	0xf8	-8
218	0xfb	-5
219	0xe0	-32
220	0xe1	-31
221	0x04	4
222	0x2b	43
223	0x04	4
224	0xfa	-6
225	0x07	7
226	0x18	24
227	0x12	18
228	0x05	5
229	0xfe	-2
230	0xd2	-46
231	0x22	34
232	0xeb	-21
233	0x08	8
234	0x03	3
235	0xef	-17
236	0x0d	13
237	0xd7	-41
238	0xd2	-46
239	0xf6	-10
240	0x10	16
241	0x05	5
242	0x1d	29
243	0xf5	-11
244	0x1c	28
245	0x06	6
246	0x0a	10
247	0x09	9
248	0xfc	-4
249	0x07	7
250	0xf2	-14
251	0x0f	15
252	0xde	-34
253	0x08	8
254	0xf6	-10
255	0xf5	-11
