EXPERIMENTS/optimization-IMU-PM/SERVER-eve_thing/models_artifacts2/lstm_v2_best.pth (torch, 213145 bytes, 12 tensors)

lstm.weight_ih_l0 f4 [256, 6]
00000000: b889 e53d 3731 0e3e db12 a8bd 727f 393d
00000010: b27d e43b a9e0 ae3c 3835 51bd 7474 d33d
00000020: a8f8 0b3e 227d f7bd 24b1 d83c 0715 a33d
00000030: b2de b13d 833e 243d 6721 493d aa1a 153c
00000040: 7e18 b63d 08c3 8e3d 8691 38bd fdae 1c3c
00000050: 751e 0fbd 1b39 01bd 9a8a a9bc eba8 563d
00000060: 0ed8 d9bd 2305 01bd b40b 19bd 61f1 2abe
00000070: ef53 063d f530 cabd e5ea 9d3d 01c6 41bd
00000080: 3145 913d 9bd9 f0bc ec79 aabd 449c be3d
00000090: 93ad 2f3d df0b 833d 2efc 1f3d 3daa f8bd
000000a0: 0115 003e 249e efbd 6ba3 013e c0e4 0b3e
000000b0: d8e6 613d 428c 3dbd 8135 e53c 4edf 5b3d
000000c0: fb5d d3bc a53b 06be fbdc d7bd 3da9 c4bd
000000d0: 63b8 11be ef80 6c3d 15dc 82bc d1e1 8abb
000000e0: e292 3dbb 347b b73c 4ae5 b13d 0ea5 a0bd
000000f0: 4d87 f2bb 361c 71bd ca62 7abc b41c 94bd
00000100: 8bb2 ef3d 8853 51bc 9c5f 0f3e 4b5f f4bd
00000110: eca3 e4bc f099 1cbd 514e 043e 3a67 f53a
00000120: bc4d c43d 0488 cdbd 2f42 38be 2a20 18be
00000130: 6be0 8dbd 75ed 8f3d d225 3c3d 29e1 b83d
00000140: d1b2 febc 64fa 69bd cdc9 a1bc 53fc 6c3b
00000150: b527 053e 7e15 15bd c016 e33d 6b44 dfbd
00000160: f598 dfbd b413 bb3b ba5d 73bd ba45 cbbd
00000170: e6ff 0a3d e849 1d3e dc65 33be 6eae f33c
00000180: 25cd ad3d 99b6 83bd 58c7 c4bd 4b98 29be
00000190: bf0e 0cbe d700 c63d 0631 6cbb 09c3 42bd
000001a0: 96b0 3539 970c e2bd 1d73 29be b1e8 9dbd
000001b0: 53b2 99bd 58f4 b9bd 84e2 2a3e 2feb a8bc
000001c0: be32 c03d b976 07be a21f 86bc d429 13bd
000001d0: 8e12 8c3d fc42 2cbe a24c 0f3d 702b 18be
000001e0: 1e27 343d 4691 abbd 48a4 943d a0ca bbbd
000001f0: cd28 ecbd ae3e 00be cad6 ed39 fa14 e6bc
00000200: bee9 4d3d d25c 94bd fb25 063e def3 3bbc
00000210: e14d 07be 7af1 dd3c 557c edbc 6d1b 88bd
00000220: 522b 0dbe 0bcf d5bd 0261 bbba 077b 14bd
00000230: da46 ce3c d203 04be 7c5c 9f3c f2f4 43bd
00000240: 8dc3 a9bd c330 69bd 5004 dd3b 0c09 b63d
00000250: fa4f be3d 4035 8fbd 73d2 523c 921d 32bd
00000260: 2c1c 5bbd 31d3 d7bd df59 c53d 86a5 91bd
00000270: 7168 033e 9b28 a53d fa22 633d 3ca1 b0bc
00000280: 6200 bc3d 9228 e73c 5b89 503d ac9b a1bd
00000290: 36a7 3b3d 3661 30bd af46 3dbd aa89 973d
000002a0: 00d9 853c 887e a7bc cfe1 dfbd f933 dfbc
000002b0: 6d13 253d ca77 bfbc 9ca1 1fbc b38b 12bd
000002c0: 18dd 81bd 75a9 13bc 29cd 383e 5ce7 05be
000002d0: c4c6 b83c 6190 913d ebbc f63c 5a41 a0bc
000002e0: 5655 ff3d 7fca b43d 9d21 e33d 8a0d 94bc
000002f0: 3a37 9bbd 311e 5fbd 5880 823d 0d05 f6bd
00000300: 9c45 763c bde6 e83d 6079 90bd 0b42 283d
00000310: 0182 96bd 0f99 823d 0bfe e23d 280e 403d
00000320: c1c1 bdbd b8ca f4bd add8 413e fff9 51bc
00000330: 9a37 d23c 7689 b3bd 454b 4cbd 5c08 afbd
00000340: 074f d6bb 88cb b63c 4c8d 733c ad07 543c
00000350: 028c 1ebe adbf 2cbd 2a4c aabd 7b63 283e
00000360: 6db2 513d 7ade b63b 6331 7b3d d177 2cbd
00000370: b4dc fdbd b3e4 d33d eef8 60bc 29a0 f2bc
00000380: 44e7 f3bd db56 823d f761 253e 0649 8fbc
00000390: 1642 0cbe 8d9f 0fbe 15a9 bbbd e933 0e3e
000003a0: 94b1 42bc 0431 2b3e 6724 e73d 9550 fa3c
000003b0: 0cfb 4b3d 5844 54bd d7b9 afbd 95a0 b4bd
000003c0: 4e19 e93d 5b2f 1cbd 728f 173d e3a7 8dbd
000003d0: ba9d f83c 7719 1ebe fc93 fdbd 2c7d 41bc
000003e0: de2d 783c 5f46 c53d bb4c c8bd 0669 fdbd
000003f0: 1029 073d a6d9 99bc 43f4 993c 8f6b adbd
0.112079084 0.13885961 -0.082067214 0.045287557 0.006972992 0.02134736 -0.051076144 0.10324946
0.13669074 -0.12084414 0.026451655 0.07962995 0.08685054 0.04009868 0.04910412 0.0091005955
0.0889139 0.06970793 -0.045060657 0.009563205 -0.034941155 -0.0315486 -0.020695973 0.052407186
-0.10636912 -0.03149904 -0.037364677 -0.16693641 0.03279489 -0.09872619 0.07710818 -0.047307972
0.07093275 -0.029400637 -0.08324036 0.09307149 0.042890143 0.063987486 0.039058857 -0.121418454
0.12508012 -0.11700085 0.12659995 0.1366148 0.05515179 -0.04627634 0.027979614 0.053679757
-0.02580165 -0.1310869 -0.105401956 -0.09602592 -0.14230494 0.05774015 -0.015974084 -0.004238345
-0.002892666 0.022397615 0.086863115 -0.07843982 -0.007401383 -0.058864795 -0.015282342 -0.07232037
0.11703976 -0.012776263 0.14001316 -0.11932238 -0.027910195 -0.038232744 0.129205 0.001872278
0.09585139 -0.100357085 -0.17993997 -0.1485602 -0.0692757 0.07027713 0.045934506 0.09027321
-0.031091126 -0.057123557 -0.019749546 0.003616114 0.13003428 -0.03639745 0.110883236 -0.109017216
-0.10917846 0.005709136 -0.059415556 -0.09925409 0.03393545 0.15360224 -0.17519325 0.02974626
0.08486394 -0.06431312 -0.09608334 -0.16562001 -0.136775 0.09668129 -0.0036039962 -0.04754928
0.00017327289 -0.110375576 -0.16547818 -0.07710398 -0.07504716 -0.09079808 0.16687971 -0.020619957
0.09384678 -0.13228883 -0.016372506 -0.035928562 0.068394765 -0.16822428 0.034985192 -0.1486032
0.043982618 -0.08377318 0.07257897 -0.09169507 -0.1153122 -0.1252391 0.00045364193 -0.028086174
0.050271742 -0.072442666 0.13100426 -0.011471717 -0.13213302 0.027092684 -0.02898995 -0.06645856
-0.13786057 -0.10439881 -0.0014295878 -0.03625014 0.025180269 -0.12892082 0.01945328 -0.04784102
-0.082892515 -0.05693127 0.006744899 0.08888444 0.09292598 -0.069925785 0.012867558 -0.04348523
-0.053493664 -0.105383284 0.09636282 -0.07111649 0.1283281 0.080643855 0.055453278 -0.021561258
0.091797605 0.028217588 0.050912242 -0.0789102 0.04581376 -0.043061458 -0.046209987 0.07399304
0.016338825 -0.020446077 -0.109317414 -0.027246462 0.04030173 -0.02337255 -0.0097431205 -0.03577776
-0.063409984 -0.00901257 0.18047012 -0.13076538 0.022555716 0.07107616 0.03011938 -0.019562412
0.124674484 0.088276856 0.110903956 -0.018072862 -0.07578893 -0.054472152 0.06372136 -0.12012682
0.015031245 0.11372135 -0.070544004 0.04107861 -0.07349015 0.0637685 0.11083611 0.0468885
-0.09265471 -0.11952728 0.18930312 -0.012815951 0.025661279 -0.08766453 -0.04987647 -0.08546516
-0.0065401825 0.022313848 0.014865231 0.012941283 -0.15483096 -0.042174984 -0.083153084 0.16444199
0.05119555 0.0055807205 0.061326396 -0.042106453 -0.123956114 0.10346355 -0.013731224 -0.029617386
-0.11909345 0.063642226 0.16150652 -0.017490875 -0.13697085 -0.14025708 -0.09163109 0.1388699
-0.011883158 0.16717917 0.1128624 0.030556003 0.049799964 -0.05182299 -0.08580368 -0.08819691
0.113817796 -0.0381311 0.037002034 -0.069167875 0.030348647 -0.15439402 -0.123817414 -0.011809628
0.015147654 0.09632563 -0.0978026 -0.12373547 0.032998145 -0.01878054 0.01879323 -0.08467781

lstm.weight_hh_l0 f4 [256, 64]
00000000: e2ee 9e3d 9e13 b6bd 0b00 ebbc 7210 cfbd
00000010: d613 bdbd 2565 313e fd18 92bc 4903 073e
00000020: c9be d63d 2fe8 9a3d fe10 d33d e5a6 113d
00000030: 4a58 13be e639 b0bd d434 6e3c 37bc 943d
00000040: 539e e43d f275 c53d 0c96 e13d 7549 943c
00000050: fc0f 9cbd 97e4 8ebd 08de d9bd a487 dabd
00000060: 1e57 ab3d 99f3 2d3d 0e41 5f3d e905 5b3c
00000070: e00e 503d 260e 643b eafd b6bc cfb4 87bc
00000080: a312 89bd e58d 6bbd 0906 6aba e312 763d
00000090: 9aa5 d53c a938 34bd e6e9 a03d 9b28 113d
000000a0: d304 47bc a376 df3d 3a1c 553d 429d b5bd
000000b0: 0e58 68bd 84a7 ca3c 801f 05be 6fa6 bb3d
000000c0: 229e 0d3d 3f42 4f3d e5f8 43bc 43fb 5ebd
000000d0: 176f b3bc 06ec 123e db41 ffbd 19ee c43c
000000e0: 9bf4 7b3d 5ee5 0ebe 7b35 b53d fef4 46bd
000000f0: 93c5 1cbd 1d9f dcbd ac99 f1bd 7146 283d
00000100: 0341 71bd a075 e93c 7a5c aebd 6d5d 7bbd
00000110: 44cf 823b 3511 fa3d ba49 4fbd 1afa a53b
00000120: 276f c43c 4c39 be3d 7326 4d3c 1404 183d
00000130: a065 b6bd 3fdb d1bd 8749 c13d 2938 c8bd
00000140: 1ed4 3f3d 3cec 043d 97c2 2b3e b571 68bc
00000150: 42b0 cfbd ee6a c2bb e794 be3d 645a 493d
00000160: be9f 093e f076 05bd 8a13 f03c 7464 cdbd
00000170: 5de4 cd3d 01ca 353d c612 663d 3cd5 97bd
00000180: 247b 3cbd 05c8 183d 9378 6abd bfac bebd
00000190: 013f 11be a383 333d 136a c03d 0da1 663d
000001a0: 72e6 c1bb 9f26 693d 47ff 9cbd be7d 703d
000001b0: 9487 99bd 55b6 8abd 402a b23d df81 d1bd
000001c0: 9c4c f5bb eddf 91bd 89ea 883c d388 6fbd
000001d0: 4d9e 763a a59b 73bd 1e1b 853d 2341 dcbd
000001e0: c54d ac3d bd57 e3bd 64ff ba3d e11b cfbc
000001f0: 288a a7bc e065 8abc 4050 d23d f40b fc3b
00000200: d901 a8bd 2163 463d 2814 e7bd 5ee1 063e
00000210: f7ad a5bb 7af9 143b 267a ddbd 5170 9d3d
00000220: 427b 65bd a71c 673d 71e2 3b3d e847 093d
00000230: 9766 453c b9dd 42bd 29ef ee3d 98da b7bd
00000240: 9b66 80bc 0f5c 16bd c594 b83c e3ab 9c3d
00000250: eb44 f7bc f62b 483c 5961 f1bd 3345 443d
00000260: 21b1 24be 352d a23d 1579 75bd 5a3b b1bd
00000270: 35f4 b33d 373b 0a3e 1c9a 80bd 144c a5bd
00000280: ff12 563d 00fd 47bc c3d4 0fbc 66d8 39bd
00000290: 1317 6cbd 01f9 6ebc 1999 883d 44dc a1bd
000002a0: c975 303d f233 763d b855 6a3d b4f4 80bd
000002b0: 5f51 403d 73ae 083e aac1 083e 0299 c33d
000002c0: ec5f 1cbc 573b c83d 6d53 d93d 3dc9 debd
000002d0: f1e9 113d 37aa 9bbd 2e2c c13d 84bd a03a
000002e0: c150 07bd fba1 023e 0130 9bbd 9d81 1dbe
000002f0: aa6d 5dbd 21a1 d13d 5fb5 463d 01e5 ebbc
00000300: 1721 9f3d ba01 9fbd 2676 b6bc 40c7 8a3d
00000310: caa7 073c 5d39 75bc d3ee 933c 157e 863d
00000320: 61b5 043d fcf6 d93c 2903 1cbd 8fec 603d
00000330: 021d ba3b 56ed 043e e212 df3b 7bbe a43d
00000340: d078 303e e964 f43d 6ae7 1abc cbd1 1f3e
00000350: 27cc a4bd e59d 493b c82b d63d cb9f e33d
00000360: 2221 bdbd d89d ec3d b56b 783c b674 92b9
00000370: 8201 083e 90d4 2bbb dae2 763d ab66 b03d
00000380: 4b7f 10be f66d 1fbe 1d48 01be 3ae7 29bd
00000390: abe6 51bd d8ea 3fbd f8b1 793d 367a ff3d
000003a0: 0c6a c23c 51b1 873d 2cab 8e3d 1135 c7bd
000003b0: e8a2 34bd fabf 193d 837b 353e 759d d53c
000003c0: 34a4 6abd 9c18 adbd f682 1abd acf4 2ebe
000003d0: 0ea0 9e3c 39c5 80bd a407 42be 6fce fdbc
000003e0: 38d9 49bd 2643 063b b1ca 023e e2cf 16b9
000003f0: 0024 7ebd 48ff 7dbd 7930 7bbc c40b 17be
0.07760407 -0.088904604 -0.028686544 -0.101105586 -0.09232299 0.1732374 -0.017834181 0.13184847
0.10485608 0.07563817 0.103059754 0.035559554 -0.14389148 -0.08604793 0.014538962 0.07262462
0.111630104 0.09641637 0.11014947 0.018101433 -0.07620236 -0.06977194 -0.10638052 -0.10670403
0.08366226 0.04246864 0.0545054 0.013368108 0.050795436 0.0034798472 -0.022337873 -0.016565708
-0.06693008 -0.057508368 -0.0008927291 0.060076606 0.026079942 -0.043999348 0.078571126 0.035439115
-0.012147146 0.109113 0.052028872 -0.08867885 -0.0567246 0.02473808 -0.13000298 0.09162604
0.034574635 0.050600287 -0.011961197 -0.05443884 -0.021903558 0.14347848 -0.12463733 0.024039315
0.06151257 -0.13954684 0.08848091 -0.048573487 -0.03827436 -0.10772536 -0.11796889 0.041082803
-0.05889989 0.02849847 -0.08513732 -0.061368395 0.003991993 0.12210313 -0.05060742 0.005065215
0.023978783 0.09288272 0.012521374 0.037113264 -0.08906102 -0.10246896 0.09437852 -0.09776337
0.04683315 0.032451853 0.16773449 -0.014187266 -0.101410404 -0.005933157 0.093057446 0.04915847
0.13439843 -0.03258413 0.029306192 -0.100289255 0.100533225 0.0443821 0.056170247 -0.07413718
-0.046015874 0.03730013 -0.057243895 -0.093102925 -0.1418419 0.04382671 0.09395232 0.056305934
-0.005917364 0.056921598 -0.07665878 0.058713667 -0.074965626 -0.06773058 0.08699465 -0.10229849
-0.007485939 -0.071227886 0.016713398 -0.058480095 0.0009407744 -0.059474606 0.06499313 -0.10754611
0.08413271 -0.11100719 0.09130743 -0.025281848 -0.02045162 -0.01689428 0.10269213 0.0076918546
-0.082034774 0.04843438 -0.112831414 0.13171908 -0.0050561386 0.0022731707 -0.108143136 0.07687438
-0.05602575 0.05642381 0.04587025 0.03351584 0.012048385 -0.047574732 0.1166671 -0.0897724
-0.015673926 -0.036708888 0.022531876 0.07649972 -0.03018423 0.012217512 -0.11786146 0.047917556
-0.16083194 0.07918779 -0.059929926 -0.086538985 0.08786813 0.13499151 -0.06279394 -0.080711514
0.05226421 -0.012206316 -0.008778754 -0.04537239 -0.057639193 -0.014585734 0.06669826 -0.079033405
0.04308108 0.060108133 0.057210654 -0.062966734 0.0469526 0.13347797 0.13355127 0.09550668
-0.009544354 0.09776943 0.10611615 -0.10878227 0.035623495 -0.07600825 0.09432255 0.0012263511
-0.033035997 0.12757103 -0.075775154 -0.15381475 -0.054059662 0.10235811 0.048512813 -0.028795721
0.07769983 -0.07764001 -0.022273134 0.06776285 0.00827975 -0.01496729 0.018058216 0.06567017
0.03239954 0.02660703 -0.03808895 0.0549131 0.0056797275 0.12981161 0.006807671 0.08044144
0.17233586 0.119333096 -0.0094545875 0.15607373 -0.080467515 0.0030764278 0.10457569 0.111144625
-0.09234835 0.11553544 0.015162398 -0.00027934246 0.13281825 -0.0026219226 0.060274936 0.08613332
-0.14111058 -0.1556929 -0.12625165 -0.04148028 -0.051245373 -0.046854824 0.06096074 0.12474482
0.023732208 0.06625617 0.06966242 -0.097269185 -0.044100672 0.0375366 0.17722897 0.026076058
-0.057285503 -0.084519595 -0.03772255 -0.17085522 0.01936343 -0.06287617 -0.18948227 -0.030982224
-0.04927942 0.00204868 0.12772633 -0.00014382557 -0.06204605 -0.062011033 -0.015331381 -0.14750582

lstm.bias_ih_l0 f4 [256]
00000000: d086 c63d 616e 9cbd bb75 c63d 03f4 2bbb
00000010: e9b5 45bc 3da9 643d 859e 053e 5ca9 7bbd
00000020: 5269 723d 32c5 413c 60ed 49bd cd98 973d
00000030: 51e9 b63c bf25 89bd 5041 20bc 6cba ec3d
00000040: fe7e 0abc f956 fa3d 20c9 87bd 621f 853d
00000050: b08f e53d 531c a63d 457b 463d 4997 723d
00000060: 7f9a 913c 241a f33d 7b79 94bc 853a d43d
00000070: b812 203e 90ba edbd ec30 cd3d cef6 283d
00000080: 0a16 7abd 70b8 e0bc 227b e6bc 9905 033e
00000090: d12e b23d 40ad 353c a3ef 61bd d9f5 a9bd
000000a0: b22f 4cbd c700 a13c 7b57 a6bd e995 d4bd
000000b0: 78c5 86bd 500d 973c 4962 ac3d 9383 f23c
000000c0: d32d 073e a5b3 403d d648 13bd 1abe a73d
000000d0: 06ef 1dbd 488b fd3d 860e bcbc a4db 79bd
000000e0: 42f4 e7ba dce6 efbc d215 f23b 3422 c3bc
000000f0: 5621 b23c e339 d93a b0a9 a6bd cfb1 a6bd
00000100: def4 17bd 8645 cbbd 99b9 18be 195e 183e
00000110: 99bd f53d e447 bd3d 7751 dd3d 58ab 6b3d
00000120: 437c 1f3c 03f2 f23c c4f2 75bd 124f e73d
00000130: bea2 793d c1f0 63bd f11d 023d 6442 58bd
00000140: 1ee3 283e d75e 003d 0085 543d e4bc eebc
00000150: 4f11 993d 1c2b 743d f56e f93c 0792 6abd
00000160: 57cd 9b3b 6c54 7ebd c947 5bbd e5d1 81bd
00000170: 4938 55bd 06c8 093e 1834 d5bd 3028 7ebc
00000180: 5a22 ae3c 1628 843c 6f6c 10bd 719c 8f3d
00000190: 5952 cbb9 0ffb 3b3d b631 123e 845f 1bbd
000001a0: b98f 003d fd05 d63d b931 2d3c 406f 54bd
000001b0: 561b 003e 1dd9 d8bd 0b3b 90bd a407 90bd
000001c0: 59e7 703d 8b91 0f3e 7b86 99bd e27d b0bc
000001d0: 2a6a 153e af9f 143e 747c af3d 81a6 c5bd
000001e0: 56f3 f63d 1dd4 393d 58e2 85bd 16e9 003e
000001f0: f9fd 91bd ebde 543d 2b66 61bd 8ca5 193e
00000200: bc7f 5fbb cafc e9bc d63b 5c3d ac0f f53d
00000210: c29c c83a 9ea3 963d 1b28 17bd f260 7bbd
00000220: 94f6 a4bd 1dd9 fdbd a876 b53d d094 0a3d
00000230: 9685 a2bd baa3 febd 0373 813d 6d42 b33b
00000240: 86fe c4bd 6d76 7bbc 17a6 35bd c4de 193c
00000250: f75e 1abd 97e3 3abd d071 8ebd a246 8ebd
00000260: a660 543c 5b53 323d 3f31 013d 33bd 8a3d
00000270: fc84 2fbd 17ac 84bd 2dae 85bd 0de1 bebd
00000280: 9fdb 80bd 522a 6cbc 3504 fa3d 1d3b f1bd
00000290: 6795 b73d a5c9 7c3d 50f2 763d e93e 723d
000002a0: 4b99 923d d364 d13d ab29 5f3d e5fa b6bc
000002b0: 7e3e 1d3d bdf1 17bc 46b6 6dbd 9299 1f3d
000002c0: ee90 143e 7cef c13d 91c1 74bd d2d8 8ebb
000002d0: 6011 8a3d d0a9 933d 2e20 c8bd 5c41 8c3c
000002e0: 0a20 8ebc a82c ef3d ebb9 b93c 4420 4fbd
000002f0: c84c 47bd 1d66 ca3d 74d2 d9bc 237c 183d
00000300: 9f60 193e 1f54 cdbd 80b3 19bd 16eb d2bd
00000310: 7f46 2cbc 976a aa3d 63e8 cc3c 2d78 853d
00000320: 5e01 0fbd 10ac a73d 5631 8dbd 3c40 d83d
00000330: 3306 1fbc e87d 0e3e 210f 723c 234b b03d
00000340: 2dc1 17bd 84c4 e73c a57e 013e 7454 8dbd
00000350: 2c83 083e 7563 9d3d b64c 64bd 074f 60bd
00000360: b805 f53d 3fcc bcbc 0f48 983d 1c86 493c
00000370: ab77 1f3e aa59 b3bd e6c5 85bc 0dce 8a3d
00000380: da2f 47bd dcce a73c 6bf4 10bd f97b 073e
00000390: 5428 8a3d 98aa 85bd 91f2 753d 39c2 db3d
000003a0: ec88 a63d 0ad8 0e3e b050 663b 9212 693d
000003b0: 085d 143e c174 c43d 96dd 38bb 22d9 9f3c
000003c0: ff0f 2f3d acfe 0a3e 235e 22bd ccde 553c
000003d0: 6b80 863d e5d7 273c c441 e9bc cd09 e33d
000003e0: 2706 a7bc 0fbc f33d 165e 09bc 2fbc f8bd
000003f0: 8900 a5bd ec37 3f3d c67d cb3d af8a 9c3c
0.09693682 -0.076382406 0.09690424 -0.0026237972 -0.012067297 0.05582546 0.13048752 -0.06144081
0.059182473 0.0118268 -0.049298644 0.07402191 0.02232805 -0.066966526 -0.009781197 0.11558995
-0.008453129 0.1222362 -0.066301584 0.065001264 0.11209047 0.08110871 0.048457403 0.059226308
0.017773865 0.1187022 -0.018124333 0.10362724 0.1563214 -0.116078496 0.10019097 0.041250996
-0.061056174 -0.027431697 -0.028134886 0.12795104 0.08700336 0.011088669 -0.055160176 -0.08298845
-0.049850173 0.019653691 -0.08122154 -0.103801556 -0.06580633 0.018438965 0.08417184 0.029603755
0.13201074 0.047046322 -0.035958134 0.08190556 -0.03855803 0.123800814 -0.022956144 -0.06100048
-0.0017696696 -0.029284887 0.007387855 -0.02382002 0.021744411 0.0016573038 -0.08137834 -0.08139383
-0.037098758 -0.0992537 -0.1491455 0.14879645 0.119990535 0.09242228 0.10806554 0.057536453
0.009734216 0.029656416 -0.060045972 0.11294378 0.06094622 -0.055649523 0.031766836 -0.05279769
0.16492888 0.031340446 0.05188465 -0.029142804 0.074740045 0.059611425 0.030448416 -0.05726817
0.004754703 -0.06209223 -0.053535257 -0.06338862 -0.05205563 0.13455209 -0.10410327 -0.015512511
0.021256614 0.016132396 -0.03525966 0.07012261 -0.0003878053 0.045893725 0.14276776 -0.037932888
0.031387065 0.10450361 0.010570937 -0.05186391 0.12510428 -0.10588286 -0.070425116 -0.07032707
0.05881438 0.14020364 -0.07496353 -0.0215444 0.1459128 0.1451404 0.085686594 -0.09650899
0.120581314 0.045368303 -0.06537312 0.12588915 -0.071285196 0.051970404 -0.055029076 0.15004557
-0.0034103235 -0.028562922 0.053768 0.1196588 0.0015305507 0.07355426 -0.036903482 -0.06137175
-0.080548435 -0.12394927 0.088605225 0.033833325 -0.07935636 -0.12433572 0.06320765 0.005470565
-0.09618859 -0.015348059 -0.04434785 0.00939149 -0.03768822 -0.045627203 -0.06955302 -0.06947066
0.012962496 0.043536525 0.031541105 0.06774368 -0.042851433 -0.06478136 -0.06527362 -0.09320269
-0.062918894 -0.014414387 0.12207834 -0.11778853 0.08964043 0.06171574 0.06028968 0.059142027
0.071581446 0.10224309 0.054483097 -0.022336433 0.038389675 -0.0092739435 -0.058035158 0.038964815
0.14508411 0.09469506 -0.05975491 -0.004359343 0.06741595 0.072101235 -0.09771763 0.01712101
-0.017349262 0.116784394 0.02267166 -0.05056788 -0.04865721 0.09882758 -0.02658961 0.03722776
0.14978264 -0.100258105 -0.0375247 -0.10298745 -0.010514854 0.08321112 0.025013154 0.06517062
-0.034913413 0.08187115 -0.06894176 0.10559127 -0.009706068 0.13915217 0.014774115 0.08608081
-0.03704946 0.028291948 0.12645967 -0.06900874 0.13331288 0.076849855 -0.05573722 -0.054762866
0.119639814 -0.02304661 0.07435619 0.012300041 0.15572993 -0.087573364 -0.016329717 0.06777582
-0.04862962 0.02048438 -0.035389345 0.13230886 0.06745973 -0.06526679 0.060045782 0.107304044
0.081315845 0.139496 0.0035143308 0.056902476 0.14488614 0.095925815 -0.0028208247 0.019512717
0.042739864 0.13573712 -0.039640557 0.013053607 0.065674625 0.010244344 -0.028473742 0.11085854
-0.020388676 0.11901104 -0.008384248 -0.12145268 -0.08056743 0.04668419 0.09936099 0.019109098

lstm.bias_hh_l0 f4 [256]
00000000: 98fb f33d c6b6 003d a1b0 dc3c 46b1 113e
00000010: ae34 e93d 61ac 0a3e bfbf 8dbd eba9 b9bd
00000020: f3d7 163e 8137 113e 0a9b 533d bd1a 873d
00000030: c643 67bc da8c a23d 6706 89bd ea56 003d
00000040: 24d0 2b3e c161 8abd ff05 8cbd a0dd 533c
00000050: 7c57 cc3d 07bf a1bd 7513 a13d 991d 3e3d
00000060: 19ea 713d 4328 da3d a211 953d 8d4b 0bbc
00000070: f94d a8bd 7c54 cd3d 21b9 2bbd 84d6 72bd
00000080: b82e 873d ca17 013e 1b59 e23b 7bd0 75bd
00000090: 1b9b d2bd 7a3d ca3d 7379 813d 59e3 933d
000000a0: ed2a 0d3e d4c8 3abd ac6b 873d cbee 063e
000000b0: c4f6 0f3c b5ab 7fbd 25aa 6cbd e833 acbb
000000c0: 159b 0fbd ece6 8bbd dca3 d9bd 3bc3 ab3d
000000d0: 7698 e33a 1037 883d 644d bc3d e173 dbbd
000000e0: e656 bdbc d776 1b3e c967 d1ba aa77 a63d
000000f0: a0c9 cebd 12a1 073e 829b 6f3d db47 55bd
00000100: a437 a93d 6c13 c63d ac87 2f3d 7d01 543d
00000110: ce6a e7ba 7aa9 5dbb c855 81bd c5d3 113e
00000120: 6558 993d fd00 943d e89d a5bd 5020 28bd
00000130: e6ba 663c 1a39 e93d ff61 da3d 0b67 ff3c
00000140: ddcc fc3d b740 8bbb 2ad4 883c 6ec1 2d3e
00000150: f7f8 af3d 9469 2a3e 2a7c febd a99d 243d
00000160: f37d 713c a17c f93d 62b6 b23d 2bbd d43c
00000170: a5a4 013e 56c1 7fbd 013e 98bc c830 a53d
00000180: 4d51 68bd f0ae c53d fd2b 243d 6f0a bdbd
00000190: cfdb 38bd 6a72 02bd 23a7 a7bd 273c 19bd
000001a0: dd13 9c3d e83a 923d 69c4 e23d 2914 823d
000001b0: dd8d 51bd 6599 edbd 5994 253e fdc3 833c
000001c0: b573 0d3e 1c60 a0bd 63cc 39bd 381b 193d
000001d0: 19b4 0b3e e821 61bd 9f7f e6bc cb21 afbd
000001e0: e87b ec3d f0f4 803d e560 89bc 3bfe e33d
000001f0: c537 a1bd 09b9 9d3c c48b 34bd ec52 843c
00000200: e2ff c4bb 42b0 93ba 3fb8 db3d 90dd d5bd
00000210: 734b 28bd 052a aabc 8785 35bd ff63 fa3d
00000220: 6979 523d 668a b93d b802 8f3d 4e2e 79bb
00000230: 68df ba3d bf08 d9bc 18b9 983d e028 913c
00000240: 2cda 1f3d 3131 473d f3db 3dbd f9bc cc3d
00000250: 8546 ed3d 0a24 8ebc b35e 08bd 7add 03be
00000260: f21d 9d3d 7aa1 e7bd 4d6f e2bd 5b20 ba3d
00000270: 42c8 c33c c593 b23d 6bf9 c1bd f6c9 64bd
00000280: 7f63 a0bc 5606 b63d 7967 b9bd 7f4c d4bd
00000290: 6da7 26bd 7bd5 89bd ba1a f43d 8b70 673d
000002a0: d5b3 a3bd 8ca9 74bd f224 6b3b 0ab3 98bd
000002b0: 3337 d4bd 477e e53d dc29 a5bd 5ae4 853d
000002c0: d30c 82bc 9a91 c0bd 49fd 7fbd 7918 4fbd
000002d0: a6d6 85bd 762d 97bd 4e1c b23b 7f92 86bd
000002e0: 9ae3 ca3d 330b fbbd c013 08bd 5ddd b33d
000002f0: 5f0a bbbd 9fd3 01bd 9c73 bbbd 6c50 dabd
00000300: 571a cc3d 6ba4 2c3d 6eb0 77bc ac5a de3d
00000310: 6c7e c93c ac19 89bd 0dfe c5bd 1aab ae3c
00000320: 91e1 c3bc 8001 123e 2f84 f7bc 423e 073e
00000330: 2a43 293b 88f6 abbc 07ec f3bd 016b 263e
00000340: 99a6 4ebd 637a c93d 5262 6abc 0be8 86bd
00000350: 9945 0cbb 96e8 b93d c52d be3d 624a 9fbd
00000360: 0c37 4ebd ef3e 6b3d 66d5 953d 5779 aabd
00000370: 8f6b ba3d c4d7 9bbc 6cfd dcbd 631f aa3d
00000380: 823a bcbd f392 433d a782 0fbd 3899 43bd
00000390: 1eb1 fbbb ac7f 79bd 470b 0b3e 6f0a bcbd
000003a0: 9292 c33d 8103 f83c 06d5 b93c 10f1 103d
000003b0: 12b4 fabc efd2 2bbd 1ea9 fd3d 258e 87bd
000003c0: 77e7 c13d b677 9abd 71b0 3ebd ec63 eb3d
000003d0: 1178 863d b4ba abbd 4744 6abd b1be ae3d
000003e0: 6eac 8e3c 9f25 223e 0804 d4bd 9550 0f3d
000003f0: e435 f1bd 9c86 883d cb1a 05bd fcdb bf3c
0.11913222 0.031424306 0.026939692 0.1422778 0.11387001 0.1354232 -0.06921338 -0.090656124
0.14730816 0.1418133 0.05166153 0.06596897 -0.01411528 0.079370216 -0.06690674 0.031332888
0.16778618 -0.06756926 -0.06837081 0.0129312575 0.09977624 -0.07897764 0.07865039 0.046414945
0.059061144 0.106522106 0.07278754 -0.008501899 -0.08217997 0.1002588 -0.0419246 -0.05928661
0.06600708 0.12606731 0.006907595 -0.060013276 -0.1028349 0.09875007 0.06321993 0.072210975
0.13785906 -0.04560168 0.06612334 0.1317703 0.008786861 -0.062419612 -0.05777945 -0.005255211
-0.035060007 -0.06831154 -0.10626957 0.08386847 0.0017364162 0.06651127 0.091944486 -0.107154615
-0.023112725 0.15182053 -0.0015976365 0.08128293 -0.10097051 0.13245037 0.058497913 -0.05207048
0.08262566 0.09671673 0.042853996 0.05175923 -0.0017655732 -0.003382294 -0.063151896 0.1424094
0.07487563 0.07226751 -0.08086759 -0.04104644 0.014082646 0.113878444 0.106632225 0.031177064
0.12343762 -0.004249658 0.01670273 0.16968319 0.08592408 0.16641837 -0.12426026 0.04018942
0.014739501 0.12181974 0.08726193 0.025969109 0.12660463 -0.06244024 -0.018584253 0.08065945
-0.05671816 0.09652507 0.040081013 -0.09230506 -0.0451315 -0.031847395 -0.08186176 -0.03741088
0.07620976 0.07140142 0.110726185 0.063515015 -0.051160682 -0.11601523 0.16169871 0.016084665
0.1381367 -0.078308314 -0.045360934 0.037379473 0.1364292 -0.054963976 -0.028137026 -0.08551367
0.11547071 0.06296718 -0.016769836 0.11132475 -0.07871965 0.01925327 -0.044078603 0.016152821
-0.006011949 -0.0011267739 0.107285015 -0.1044265 -0.04108758 -0.02077199 -0.044316795 0.12226104
0.051385317 0.090596005 0.069829404 -0.0038021985 0.091246426 -0.026493428 0.07457179 0.017719686
0.039026424 0.048630897 -0.046352338 0.09996981 0.11585716 -0.01735117 -0.033293437 -0.12877455
0.07671727 -0.11310096 -0.11056385 0.090882026 0.023899201 0.08719591 -0.09471401 -0.055856667
-0.019578693 0.08887927 -0.09052939 -0.10366153 -0.040687013 -0.06730171 0.1191916 0.056503814
-0.079932846 -0.059732005 0.0035880175 -0.07456024 -0.10362091 0.11205726 -0.08064625 0.06537695
-0.015875256 -0.09402771 -0.06249741 -0.05056045 -0.065350816 -0.07381718 0.005435503 -0.06570911
0.09906693 -0.122579955 -0.03322196 0.08782456 -0.091328375 -0.03169596 -0.0915291 -0.106598705
0.099659614 0.04214899 -0.015117748 0.10857138 0.024596415 -0.0669435 -0.09667597 0.021321822
-0.02391127 0.14258385 -0.030214397 0.13207343 0.0025827386 -0.020991579 -0.11910253 0.16251756
-0.05045185 0.098377965 -0.014305668 -0.065872274 -0.0021403788 0.09077565 0.092860736 -0.07777859
-0.050345466 0.057433065 0.07316093 -0.08323925 0.091025464 -0.019023784 -0.10790524 0.08306768
-0.09190847 0.047747564 -0.03503671 -0.047753543 -0.007681026 -0.060912773 0.1357852 -0.091816776
0.095494404 0.030275108 0.022684585 0.035386145 -0.030603442 -0.04194921 0.12385772 -0.06618909
0.094679765 -0.07542364 -0.046554986 0.11493668 0.065658696 -0.0838522 -0.05719402 0.08532465
0.017416205 0.15834664 -0.103523314 0.03498896 -0.11777857 0.066663 -0.032496255 0.023420326

lstm.weight_ih_l1 f4 [256, 64]
00000000: a7b0 523b 2716 d93b 2560 56bd 7632 97bd
00000010: 296b 553d c422 45bd 06b4 703b c2b6 7fbb
00000020: c2b4 b63d e1f6 6cbc c31a f93d f9e1 9cbc
00000030: aeec aabd d1e7 2d3d dc5b 40bd 768c 643d
00000040: 99d7 13bd 16a4 0f3d 23b8 7ebd cb8e f1bc
00000050: 7631 05be d432 4cbd d3af f03d 148e 883d
00000060: e845 35bd 7e89 65ba 00f3 9e3c 5b5c a63d
00000070: 58d0 c63d e310 42bd 0fbf 6fbd 9010 903d
00000080: b2d8 75bc 1b58 e1bd 6713 1bbd 756d 80bd
00000090: 67d3 e0bd 70ae d5bd c51b 033e 5682 0cbb
000000a0: 26aa a83d e229 dfbd 5636 553d 0768 23bc
000000b0: fa0f dcbd 5377 62ba 74aa 383d 89b3 9abd
000000c0: 63cd 963d a2bc 933d 3fe4 d4bd 2106 97bd
000000d0: 7394 a63d a2dd adbc 7157 b0bd a01d cc3c
000000e0: 3e23 dcbd a777 f53c 9ef5 dfbc 788f d13c
000000f0: f1c7 3dbd e01f 0fbd 62d5 b7bd 2ba9 7d3d
00000100: 744b 30be ea6b 873d 2aee 1b3d a1cb abbd
00000110: 16f0 1d3e 4863 223d a9ff bbbc f767 463c
00000120: 2ce7 5bbc 612b 62bd 34f3 a03d 4243 07bd
00000130: 3720 073d 115d eabc 35dc d93c a923 ec3d
00000140: aab7 49be 4cfe 64bd 7613 9dbc 191d 92bd
00000150: 9d83 92bc e2a7 fabc 18d3 acbd 6f01 efbd
00000160: dadd 4fbd 4a60 debc b798 be3d 4b86 08bd
00000170: 7532 7e3d 0c8b 09bc cd77 f6bd fd23 cf3d
00000180: aa05 333d 7269 443e b9c4 4e3c c2a3 3fbd
00000190: a551 5e3d b6d8 93bd b3db 993d ed50 03be
000001a0: d370 91bc 2e58 95bc 49fa 1dbe 72e2 c23b
000001b0: 8484 06be 3823 7bbd 90d1 5bbc 6e1d 69bd
000001c0: e048 0b3e 2b12 72bc 8607 a4bc 9ebb 5b3d
000001d0: 19c8 d2bc b47a 193d 40b4 b5bd de6a fb3d
000001e0: 61e1 1cbd 4b3d 26be b9d0 25bd 3172 67bd
000001f0: 1fda 20be 0338 b5bd a5f8 1c3d 49b5 c43c
00000200: 9eb2 13be 00d7 febb f32b f23b 6fe6 87bd
00000210: 977d 3c3d 6392 ad3d cf5a 043d 4aac b3bc
00000220: e389 dd3c 6aec 44bc f394 493c c15c c73c
00000230: 1a45 8db9 cd77 1c3e e442 213e 02d0 c13c
00000240: 96cb debc 4ac7 47bd 5464 323c 90c4 253d
00000250: e576 15be 8b20 03be 63c5 9fbc a148 693b
00000260: 02fd 183d f5da 993d 9142 403d e582 e43d
00000270: 9e39 873d aaaf 67bd 3340 b93d 38ec 8cbd
00000280: 8465 f1bd 0aa8 6e3c f403 70bd eac9 6ebc
00000290: ce28 e03c 2aa2 073c c20c 90bd 2a4c 883d
000002a0: f377 8e3d 2acf a23a ca6f 873d 8b27 92bd
000002b0: 08c5 ca3d cd97 24bd 97fc 243a 9b1f e5bc
000002c0: 9a7f 0e3c 0c51 883d af2a 2f3a 6ced 9b3d
000002d0: ca90 5d3c 9292 8ebd 4a7e 8cbd 4eeb 2abd
000002e0: 5fc6 09be 405a 9e3d 468b e13d b32f 8b3d
000002f0: 06dc 8f3d 655c 1b3e 5946 1bbc 233c f73a
00000300: 37a6 0dbd 4289 f2bd c4b5 adbd 78f1 0e35
00000310: 027e d6bd 2821 73bd 37e1 a6bb 13ba dfbd
00000320: c498 adbd ccbd f0bd 91eb 3d3d aa2d ad3c
00000330: 8c97 13be c4d8 cebd 8f71 3d3d 109a c93d
00000340: bbd9 153d e567 8a3d fb83 0a3d 5f0f 173d
00000350: 979a 553d b0a4 5fbd 281a 9e3d e355 6ebc
00000360: 6082 863d 2e3f b0bd d40f 98bd 5fcc 83bd
00000370: 1b7d 24bd 4006 f03d d0eb 18bd 0656 f63c
00000380: 1a9b 55bb 954a d63c a449 70bd 4a7d 6ebd
00000390: 8f71 c1bd 01fa 853c 7b94 eebd 4e6e ddbd
000003a0: a8c8 163e a3d4 8d3d 0abb c33b f757 78bd
000003b0: 4745 fc3d 9d70 2ebc 68a7 e9bd f437 a23d
000003c0: 1543 cb3d af29 d93c e91a ea3d a6fa bebd
000003d0: 0cb1 113c b633 063e e5ce e6bd b5ad cebd
000003e0: b48c ba3c 3136 343d 8d10 b83c b0c4 873a
000003f0: fc0f cf3d 5442 9d3d b586 07be 9254 f6bd
0.003214875 0.006624955 -0.052337784 -0.073826715 0.05210415 -0.04812886 0.0036728396 -0.0039018844
0.089211956 -0.014463157 0.121633075 -0.01915072 -0.08345924 0.042457405 -0.046962604 0.055798016
-0.03609428 0.035068594 -0.062187325 -0.029487034 -0.13007149 -0.04985316 0.11752286 0.06667724
-0.04425612 -0.00087561447 0.01940298 0.08123084 0.09707707 -0.047379386 -0.058531817 0.07034409
-0.0150052775 -0.11003133 -0.0378603 -0.06270877 -0.10977822 -0.10433662 0.12803562 -0.002143999
0.08235578 -0.108966604 0.052053772 -0.0099735325 -0.10745235 -0.00086389965 0.04508443 -0.07553775
0.07363393 0.07213713 -0.10395097 -0.07374216 0.08133783 -0.021223847 -0.08610428 0.02491647
-0.107489094 0.029964281 -0.0273388 0.025581107 -0.046333257 -0.034942508 -0.089762464 0.06192891
-0.17216283 0.0661238 0.038068928 -0.083884485 0.15423617 0.039645463 -0.022949057 0.012109748
-0.013421815 -0.05521715 0.07858887 -0.033023126 0.032989707 -0.02860883 0.02659426 0.11530239
-0.19698969 -0.05590658 -0.019174319 -0.07134456 -0.017885024 -0.03059763 -0.084387004 -0.11670195
-0.050748684 -0.027145524 0.09306472 -0.033331197 0.06205984 -0.008394968 -0.12034569 0.10114286
0.043706574 0.19180849 0.0126201445 -0.04678703 0.05427708 -0.07219069 0.075126074 -0.1282384
-0.017753994 -0.018230524 -0.15427507 0.0059474045 -0.13136488 -0.061312884 -0.013416663 -0.056912832
0.13602018 -0.014774839 -0.020023119 0.053645723 -0.02573018 0.037470534 -0.088722706 0.12276243
-0.038300876 -0.16234319 -0.040482257 -0.056505386 -0.15708207 -0.08848574 0.038323063 0.024012225
-0.14423606 -0.007777095 0.007390493 -0.066357486 0.04601821 0.08475187 0.032313164 -0.02193274
0.027043289 -0.012019256 0.012303579 0.02433622 -0.000269451 0.15280075 0.15748173 0.023658756
-0.027196687 -0.04877404 0.010888178 0.04047066 -0.14596136 -0.12805383 -0.019503301 0.0035596269
0.037350662 0.07512466 0.046938483 0.11157779 0.066027865 -0.05656401 0.09045448 -0.06880993
-0.11786941 0.014566431 -0.05859752 -0.014574507 0.027363207 0.008278409 -0.07033683 0.06655152
0.06956472 0.0012421359 0.06613119 -0.071364485 0.09900862 -0.04018383 0.00062937423 -0.027969172
0.008697415 0.066560835 0.00066820806 0.07613644 0.01352329 -0.0696155 -0.06860025 -0.04172831
-0.13454579 0.077320576 0.110128924 0.06796207 0.07024388 0.15171964 -0.009477221 0.0018862527
-0.034582343 -0.11842586 -0.08481935 5.3250506e-07 -0.10473253 -0.059357792 -0.0050927657 -0.10924163
-0.08476403 -0.11754951 0.04636723 0.021139938 -0.1441328 -0.100999385 0.046250876 0.09843838
0.036584597 0.067580976 0.033817273 0.036879893 0.05214938 -0.054600418 0.07719833 -0.014546844
0.06567836 -0.086058006 -0.07424894 -0.06435465 -0.040158372 0.11719942 -0.037334263 0.030070316
-0.0032593668 0.02615861 -0.05866398 -0.058224954 -0.09445488 0.016354563 -0.11649414 -0.108120546
0.14724982 0.06925323 0.0059732245 -0.060630765 0.12317901 -0.010646966 -0.11408883 0.079208285
0.09924904 0.026509134 0.11430914 -0.09325151 0.008892309 0.13105664 -0.11269931 -0.10091726
0.02277217 0.043996993 0.02246883 0.00103583 0.10110471 0.07678667 -0.1323498 -0.12027849

lstm.weight_hh_l1 f4 [256, 64]
00000000: bf59 84bd fdc5 03be f77d 833d c5df 4bbd
00000010: 1409 6abb 0471 53bd 47ee 07bb d5f8 013e
00000020: be08 523d 5c1c 59bd cce5 9d3d e157 94bd
00000030: d486 be3b ad57 abbd 09c8 57bc 524a cbbd
00000040: 7b8b 3e3d c760 f8bc 3e6a b43c d28e afbd
00000050: cee6 073e ac2e 143e 2402 503d b513 ddbd
00000060: b39c e3bd 1272 abbd 1fde 813d 8fbe 863d
00000070: 25bb f93c 4425 e7bd b86e 613d d48b f3bd
00000080: 477d efbd 4c71 32bd 6c41 833d 9f71 84bd
00000090: ba41 1f3d f580 923d 1483 c43d 5ae2 d9bd
000000a0: a9c2 c7bc eb3e debd 5f78 4ebd 6533 8c3d
000000b0: bf3f 07bd 3331 e63d f59b e03d 0471 4cbd
000000c0: b216 963c ff7b cc3d 1e3c 83bc 0922 283c
000000d0: f894 b83d bf46 debd 0edc 4bbd ed18 70bd
000000e0: 2095 103e 83e5 f6bd 6dd5 a2bd 8364 61bd
000000f0: 7497 57bd 1fc8 dbbd 519b d4bd cc6b ad3c
00000100: 2d2f 9a3d 1784 6c3d 8581 993d 1c60 0d3e
00000110: b3cc a5bd 1ecb ed3d 4813 6f3d 6d37 38bd
00000120: 1562 1b3e eab7 c53c 8f34 7dbd ed32 d43d
00000130: af03 823d 9e36 5539 c3bd b5bc c820 183b
00000140: 8b7c ebbb 158c e33c 1cf4 02be 8f45 3e3d
00000150: 8ec8 6fbd 7efd 2abc 6ad6 ba3b 136b e1bd
00000160: 2359 4bbd 2d8f ff3c 4719 84bc 7b6e e43d
00000170: 0318 203d b447 263e 5347 0ebe 9310 083e
00000180: 16b3 9dbb 64d6 aa39 8a72 82bd bdf2 90bd
00000190: b366 c63d 8a79 2bbd 7933 31bd ce4d a7bd
000001a0: 4b37 d1bd a8b3 dcbd 2cca 593e 66b0 34be
000001b0: 8f79 003d 24cd 7a3d c5ce 51bc 8e73 ee3c
000001c0: f68c 0d3e 06b9 f83b bbed d3bc 0ac4 f9bc
000001d0: 8a41 b93d 89cb 58bd 2ada 343e e225 a1bd
000001e0: 979a b5bd df54 dc3d 622e 103e 9caf 8a3c
000001f0: 7c4a 623d 5501 9bbd d894 bcbd 84d1 e2bd
00000200: 311b 2d3d d0b2 873d ca43 de3c 5b89 153d
00000210: 2ade a83c 458e 333c 91a6 663d 9963 5a3d
00000220: 40fa 60bd 3343 653d 48e3 173c 35f3 bfbd
00000230: 47b1 413d cf26 88bd 6cf3 2cbd ebed 47bd
00000240: 1594 4ebd 31a3 613d 9713 d7bc c491 f53c
00000250: 9eea 60bd e42a 83bd d55a b5bd 90d7 c83d
00000260: 9890 efbd 59d3 0ebe aa81 48bd bb67 0ebe
00000270: c9f8 a5bd 5231 263d 68d1 923d a20d 57bd
00000280: cb32 8f3d 9ce9 b13c ed7e 8bbc 522a 003e
00000290: eda0 ff3d 2cbb fd3d 7244 ebbd fd59 bd3d
000002a0: 64b6 0ebe f8b2 a3bd 63e4 fb3d e4fd 3cbd
000002b0: 8266 debd cbcf 9fbd 7a84 df3d 69ba 85bd
000002c0: 417c b13d 2177 82bd c8e1 c93d c4dc 6dbc
000002d0: e271 e03c d2bd d03d 9ef8 7fbd de31 573d
000002e0: b174 363d 086e 2dbc caf2 7cbd 4ea0 053d
000002f0: b010 443d b09f ab3d 359c 62bc 0317 1f3d
00000300: e526 c4bd 76ba babd 9f78 51bc 5f3b 09be
00000310: 528e ebbc 506c ccbd 2c7f 313d 5856 02be
00000320: 2bc0 87bd 1940 b33d 0d70 6bbd 59b2 c8bd
00000330: 971c cd3d 6422 153e b7f7 683d 7d6c b6bc
00000340: e8a2 f2bc 7500 a0bd ffb2 1abd f8d2 1a3d
00000350: 5d5f 39bc e545 bebd 4e7b f13d b25b 8abd
00000360: 1b5e afbd 7e7d ff3d 08b9 a4bc fffc 803c
00000370: e3bb 523d 2b44 963c 39e6 0d3d 3ed9 893d
00000380: 45bc ac39 7d14 d7bd 652f 983d 530f 88bd
00000390: 4c2d 143e 3c3e 643d c319 3a3b 1395 003e
000003a0: 5332 e0bb b8b9 893d ce0e adbd 6af3 5d3d
000003b0: 0e2a ad3d 9d63 15bd a09a ffbc 2166 223d
000003c0: 8470 87bd ff7b 8cbd 63d2 cfbc fe80 b2bd
000003d0: 9fe6 293d ff8a 0dbb abf9 e23d cb7f 89bd
000003e0: da3d 963d 3aab 5bbd 544d e4bd 2b0e 9d3c
000003f0: 2571 16bc faaa 7abd cb4f bbbd 3e7d c7bd
-0.0646243 -0.12868495 0.0642051 -0.04977395 -0.0035710977 -0.051621452 -0.002074139 0.12692578
0.05127787 -0.05300556 0.07709846 -0.07243324 0.0058144126 -0.08366332 -0.013170251 -0.09926285
0.046519738 -0.030319585 0.022023316 -0.08572163 0.13271639 0.14470929 0.05078329 -0.107947744
-0.111138724 -0.083713666 0.06341194 0.06579315 0.030484745 -0.11286405 0.05503723 -0.118919045
-0.11693817 -0.04356508 0.064089626 -0.06466984 0.03888104 0.07153503 0.09595314 -0.10638876
-0.024384813 -0.108518444 -0.050407764 0.0684574 -0.033019777 0.11239853 0.109672464 -0.049912468
0.018321369 0.09984588 -0.016019877 0.010262021 0.090127885 -0.108533375 -0.049770407 -0.05861752
0.14119387 -0.12055495 -0.07950864 -0.055027496 -0.05263467 -0.107315294 -0.10381187 0.021169566
0.07528529 0.05774316 0.07495407 0.13806194 -0.08095684 0.11611007 0.058367997 -0.044974733
0.15174134 0.024135549 -0.061817702 0.10361276 0.06348359 0.0002033361 -0.022185212 0.0023212899
-0.0071864775 0.027776757 -0.12788433 0.046453055 -0.058540873 -0.010436414 0.0057018297 -0.11006751
-0.049645554 0.031196201 -0.016125334 0.11153885 0.0390854 0.1623829 -0.13894396 0.13287573
-0.0048126085 0.0003258466 -0.06369503 -0.07077549 0.09687557 -0.041863956 -0.04326198 -0.08169137
-0.102156244 -0.10776454 0.21268529 -0.17645416 0.031365927 0.061230794 -0.012805645 0.029107835
0.13823304 0.007590416 -0.025870195 -0.030488987 0.09045704 -0.05292848 0.17661348 -0.07868554
-0.08867376 0.107583754 0.14080194 0.01692944 0.055246815 -0.075686134 -0.09208077 -0.11075118
0.04226226 0.06625903 0.027131934 0.036507946 0.020613749 0.010959213 0.056311194 0.05331764
-0.054926157 0.05597229 0.009270497 -0.0937256 0.047288205 -0.06648027 -0.042224333 -0.04881088
-0.05043419 0.055087272 -0.026254458 0.029976733 -0.05491125 -0.06404665 -0.088552155 0.0980674
-0.11697501 -0.1394781 -0.048951782 -0.13906758 -0.08104093 0.04057438 0.07168847 -0.052503236
0.0699211 0.021717839 -0.017028296 0.12516144 0.12481866 0.12389216 -0.11487664 0.092456795
-0.13936764 -0.0799312 0.12299421 -0.046140566 -0.108593956 -0.07803305 0.1091394 -0.065296955
0.08666278 -0.06370378 0.098575175 -0.014517967 0.027398054 0.10192455 -0.06249296 0.05253779
0.04454488 -0.0105853155 -0.06175498 0.03262358 0.047867477 0.08380067 -0.013831188 0.038840305
-0.09577731 -0.09117596 -0.012785106 -0.13401555 -0.028754387 -0.099815965 0.04333417 -0.1272825
-0.0662845 0.0875246 -0.057479907 -0.09799642 0.10015219 0.145639 0.056876864 -0.022268528
-0.029618695 -0.07812587 -0.03776836 0.03779885 -0.01131424 -0.09290675 0.11791097 -0.06755771
-0.08562871 0.124751076 -0.020107761 0.015745638 0.051448714 0.018343052 0.034643386 0.06730889
0.00032946668 -0.10501955 0.07430915 -0.06643548 0.14470404 0.055723414 0.0028396703 0.12556867
-0.0068419366 0.06724876 -0.084500894 0.054187216 0.08455287 -0.03647195 -0.03120166 0.03964818
-0.066132575 -0.06859588 -0.025368875 -0.087160096 0.041479703 -0.002159774 0.11082777 -0.06713828
0.07336016 -0.05363009 -0.11147562 0.019171795 -0.009182249 -0.061198212 -0.09146079 -0.09740685

lstm.bias_ih_l1 f4 [256]
00000000: 1367 58bd 9df8 41bd 5788 003e f025 c0bd
00000010: 466c 61bc a865 42bd dea5 6c3c 5c0c a2bd
00000020: f8c1 8fbd 9c37 a53d 5441 d5bd 0d04 5d3c
00000030: 055f fc3c e082 e6bd 1af8 9c3d 2284 3bbd
00000040: e0d0 073b b8f7 03be 5a0b d73d cf7f 163e
00000050: 53ae fe3d 6114 51bd 9175 6e3b 71d0 d93d
00000060: 27ee 213b 1d18 953d 1dcc db3d dff8 c7bd
00000070: dcb4 8abd 03ce cd3d 14cb 5cbd 29c4 0fbd
00000080: 9d7d 9d3d e38a 41bd 8625 a0bd 05cd cebd
00000090: 33c0 05bc 5aa9 4dbc 1288 f7bd 2064 4fbc
000000a0: 3950 6ebc 1651 b3bd ac54 e33d 69aa ccbd
000000b0: f83a 1f3d 7089 a03c 9340 d5bc 84ef a5bd
000000c0: 697c 96bc 6afb cd3b 3eb4 d73c c825 6dbc
000000d0: b4aa 5d3d 8877 263d a207 00be 9d14 a0bd
000000e0: 1b94 6cbd 2c5a ea3c c7db a9bd 41c8 eb3d
000000f0: 58b5 b23d c801 d63d be72 973d 3119 6f3c
00000100: e28b 533d fbbc 813c bd1f 043d 620e c9bc
00000110: 5c94 eb3d 9a00 b03d d095 f7bc 1ac2 dd3d
00000120: 68e7 9abd e94e b0bd 4010 97bc 298f a13d
00000130: f026 8e3c 9de1 50bd 0526 013e 79a6 033d
00000140: ffc0 4e3d 11d4 c6bc b5d9 ad3c e4b8 083c
00000150: c407 bfbd 99d5 b53d 5c85 3e3c 1c28 a63d
00000160: 0f98 79bd 1d65 abbd 653c b6bc 8c38 de3c
00000170: 41e4 863d db59 89bd 4645 ae3d 5fab 1e3e
00000180: 9b77 cb3b df34 b13d 4663 96bd 34b1 d83d
00000190: 4c1d 00be 9aa2 143e 75b1 bc3d 3bc6 503d
000001a0: 5e83 dd3d 535f 80bc bbab 1b3e 9105 713d
000001b0: 7286 eb3d 5f52 0b3e d1f6 cdbd 0153 563d
000001c0: ea34 043d 70a3 eb3d b536 7e3d 0d6b af3c
000001d0: 3697 be3d 33db a33d 486d d73c 314c 10bd
000001e0: ce05 9d3d 7621 53bd 1612 83bc 822b 213e
000001f0: d7d9 163e 56aa 6e3d 4fd7 3e3e 4b69 17bd
00000200: 21ba a53d 1ae3 43bd 9229 b73d c1f9 823d
00000210: 2d00 06bd bef2 d5bd 3b5e b93d c02b 05be
00000220: 33d1 a83c e70b 5fbc 905b c3bd 06db 083a
00000230: e190 a5bd 034c 19bd 730f 093e 7083 b53b
00000240: 2ddf 933d 5e22 61bd 99a2 173d d1d8 d73d
00000250: 8ea3 51bc 1e2f 88bd 8829 743d baac 373d
00000260: 2cab f4bd 140d 8bbd 6a8a 2abd b7a0 81bd
00000270: 9c29 d8bd ce37 b23c 9ed5 63bd f1c3 a73c
00000280: f4c0 08bd 6843 e03d 7ba0 d5bb c1c5 ab3c
00000290: 2a9d 9dbd 53a1 093b 403d e93b f2db 0ebd
000002a0: d27e ce3d 8926 bd3d 9c55 553c f180 98bd
000002b0: 1808 943d cb97 96bd 761a d03d c50d 823d
000002c0: 2b5a e0bd fba1 0d3d 0c48 e13c c6bb f9bd
000002d0: 81b1 e8bd fa42 a4bd c1b9 003d fc58 98bd
000002e0: aaca de3d f07e a13d 5936 df3d b46e 043d
000002f0: 3973 df3c 7192 04bc 3707 163c 9162 7bbd
00000300: 7a9b a33d 21c5 ae3d 89a1 b3bc ad38 9b3d
00000310: b23e 263d 648b bb3d 8fad 63bd 324c 8ebd
00000320: be29 cc3d 02fb 653c a86d afbd ca99 a43c
00000330: 5a45 89bc 0079 76bb 20e0 00bd 75ca 9ebd
00000340: 2117 7bbd 58f3 64bd d7b6 473d 7075 dbbc
00000350: 67f5 953d f34d a5bd 25ca cabc 1ce5 1b3d
00000360: e34b c13d 3f07 90bd 0def 083e 0ff8 f43d
00000370: cb68 973d 5d15 733d 2028 13bd 9bc0 883d
00000380: de1c 103e 35fb 26bd 734c 5abd 914a 8a3d
00000390: f14f 9fbc 69d6 d03c c2fd c83d 3ae3 6abd
000003a0: ccfd 7b3d 9fd0 f53d 6a6d 153d 6a3b ccbb
000003b0: d8f4 d43d 718a 443d c92a b93c 31d8 a53c
000003c0: b8a1 c13d 34c2 ce3d d147 a4bc 2031 153d
000003d0: 1ba4 cc3d 7af7 803d 44db abbd 055b d63d
000003e0: 2ef8 ddbd 2e7f 3abd 4036 91bb 6b4a 13bd
000003f0: c5ed ee3d 90b6 023d c85b 253e e042 d5bc
-0.052832674 -0.047356237 0.1255201 -0.09382236 -0.013758725 -0.04746023 0.014443843 -0.079125136
-0.070194185 0.08067247 -0.10412851 0.013489735 0.030807028 -0.11255431 0.07664509 -0.04578031
0.0020723864 -0.12887466 0.10500212 0.14697193 0.124355935 -0.051044825 0.0036385993 0.1063546
0.00247086 0.0727999 0.10732291 -0.09764265 -0.067727774 0.10049059 -0.053904608 -0.035099182
0.076899745 -0.047251593 -0.07819657 -0.10097698 -0.0081635 -0.012552584 -0.120865 -0.012658149
-0.014545494 -0.087557 0.11100134 -0.09993441 0.038874596 0.019596785 -0.026031768 -0.081023246
-0.01836987 0.0062860744 0.026331063 -0.01447434 0.054117873 0.040641338 -0.12502912 -0.07816432
-0.057758432 0.02860745 -0.08293872 0.11512805 0.08725995 0.104495585 0.07394932 0.014593408
0.051647075 0.015837183 0.03225683 -0.024542991 0.11502907 0.08593865 -0.030222803 0.108280376
-0.075636685 -0.08608801 -0.018440366 0.07888634 0.017352551 -0.05099641 0.1261216 0.032141183
0.050477024 -0.024271043 0.021221975 0.008344863 -0.09327653 0.08878631 0.011628475 0.08113119
-0.06093603 -0.08368895 -0.022245595 0.027126573 0.06586505 -0.06706592 0.085093066 0.1549506
0.0062093264 0.086526625 -0.07343154 0.10580674 -0.12511176 0.14515153 0.09213535 0.050970297
0.10816072 -0.015670454 0.15202229 0.0588432 0.11500253 0.13605641 -0.10056842 0.052325252
0.032277025 0.115057826 0.06206389 0.02141335 0.09306185 0.08000793 0.026297227 -0.03522891
0.07667123 -0.051545583 -0.015999835 0.15739253 0.14731537 0.058267914 0.18636821 -0.03696565
0.08092142 -0.047824003 0.08943476 0.06395293 -0.03271501 -0.1044669 0.09051176 -0.1300497
0.020607566 -0.013613678 -0.095389485 0.00052206253 -0.08084274 -0.037426006 0.133848 0.00553935
0.07220302 -0.054964416 0.0370203 0.10539401 -0.012795342 -0.06649612 0.05960992 0.04484246
-0.11946711 -0.06789604 -0.04163591 -0.06329482 -0.10554811 0.021755125 -0.055623643 0.020479174
-0.03338714 0.10950357 -0.006519375 0.02096832 -0.07695992 0.0021000698 0.0071178973 -0.034877725
0.10082783 0.092358656 0.013020899 -0.074464686 0.07228106 -0.07353171 0.10161297 0.063502826
-0.10954698 0.034578305 0.027500175 -0.12194018 -0.11361981 -0.08020587 0.03142715 -0.074388474
0.10878499 0.078855395 0.10899038 0.032332137 0.027276622 -0.008091555 0.009156994 -0.061373297
0.07988639 0.08533693 -0.021927612 0.075791694 0.040587135 0.09157446 -0.05558544 -0.06948127
0.09968899 0.014036896 -0.08565837 0.020092864 -0.016756702 -0.0037608743 -0.031463742 -0.07753459
-0.061301354 -0.055896133 0.048758354 -0.026789397 0.073221974 -0.08071508 -0.024754593 0.038060293
0.09438302 -0.07032632 0.1337244 0.11961376 0.073930345 0.059346545 -0.035926938 0.066773616
0.14073512 -0.040766913 -0.053295564 0.06752504 -0.019447299 0.025492864 0.098140255 -0.057345606
0.061521336 0.12002682 0.0364813 -0.0062326686 0.10398263 0.04798359 0.02260341 0.02024469
0.094546735 0.10095635 -0.020053776 0.036423802 0.09992238 0.062972024 -0.08391431 0.10466579
-0.10838352 -0.045531444 -0.004431516 -0.035959642 0.11666445 0.031912386 0.16148293 -0.026032865
